{"format": "graph-model", "generatedBy": "2.15.0", "convertedBy": "TensorFlow.js Converter v4.17.0", "signature": {"inputs": {"serving_default_input__0": {"name": "serving_default_input__0:0", "dtype": "DT_FLOAT", "tensorShape": {"dim": [{"size": "1"}, {"size": "320"}, {"size": "3"}, {"size": "320"}]}}}, "outputs": {"PartitionedCall__0": {"name": "Identity:0", "dtype": "DT_FLOAT", "tensorShape": {"dim": [{"size": "1"}, {"size": "2"}]}}, "PartitionedCall__1": {"name": "Identity_1:0", "dtype": "DT_FLOAT", "tensorShape": {"dim": [{"size": "1"}, {"size": "1"}]}}}}, "modelTopology": {"node": [{"name": "PartitionedCall/model_2/tf.clip_by_value_3/clip_by_value/Minimum/y", "op": "Const", "attr": {"value": {"tensor": {"dtype": "DT_FLOAT", "tensorShape": {}}}, "dtype": {"type": "DT_FLOAT"}}}, {"name": "PartitionedCall/model_2/tf.clip_by_value_3/clip_by_value/y", "op": "Const", "attr": {"value": {"tensor": {"dtype": "DT_FLOAT", "tensorShape": {}}}, "dtype": {"type": "DT_FLOAT"}}}, {"name": "PartitionedCall/model_2/tf.clip_by_value_2/clip_by_value/Minimum/y", "op": "Const", "attr": {"dtype": {"type": "DT_FLOAT"}, "value": {"tensor": {"dtype": "DT_FLOAT", "tensorShape": {}}}}}, {"name": "PartitionedCall/model_2/tf.clip_by_value_2/clip_by_value/y", "op": "Const", "attr": {"value": {"tensor": {"dtype": "DT_FLOAT", "tensorShape": {}}}, "dtype": {"type": "DT_FLOAT"}}}, {"name": "unknown_114", "op": "Const", "attr": {"dtype": {"type": "DT_FLOAT"}, "value": {"tensor": {"dtype": "DT_FLOAT", "tensorShape": {}}}}}, {"name": "PartitionedCall/model_2/tf.math.reduce_max_1/Const", "op": "Const", "attr": {"value": {"tensor": {"dtype": "DT_INT32", "tensorShape": {"dim": [{"size": "2"}]}}}, "dtype": {"type": "DT_INT32"}}}, {"name": "unknown_113", "op": "Const", "attr": {"value": {"tensor": {"dtype": "DT_FLOAT", "tensorShape": {}}}, "dtype": {"type": "DT_FLOAT"}}}, {"name": "unknown_104", "op": "Const", "attr": {"dtype": {"type": "DT_FLOAT"}, "value": {"tensor": {"dtype": "DT_FLOAT", "tensorShape": {"dim": [{"size": "3"}, {"size": "3"}, {"size": "256"}, {"size": "1"}]}}}}}, {"name": "unknown_106", "op": "Const", "attr": {"value": {"tensor": {"dtype": "DT_FLOAT", "tensorShape": {"dim": [{"size": "256"}]}}}, "dtype": {"type": "DT_FLOAT"}}}, {"name": "unknown_108", "op": "Const", "attr": {"value": {"tensor": {"dtype": "DT_FLOAT", "tensorShape": {"dim": [{"size": "1"}, {"size": "1"}, {"size": "256"}, {"size": "1024"}]}}}, "dtype": {"type": "DT_FLOAT"}}}, {"name": "unknown_110", "op": "Const", "attr": {"dtype": {"type": "DT_FLOAT"}, "value": {"tensor": {"dtype": "DT_FLOAT", "tensorShape": {"dim": [{"size": "1024"}]}}}}}, {"name": "PartitionedCall/model_2/tf.math.reduce_mean_1/Mean/reduction_indices", "op": "Const", "attr": {"dtype": {"type": "DT_INT32"}, "value": {"tensor": {"dtype": "DT_INT32", "tensorShape": {"dim": [{"size": "2"}]}}}}}, {"name": "PartitionedCall/model_2/tf.compat.v1.transpose_7/transpose/perm", "op": "Const", "attr": {"value": {"tensor": {"dtype": "DT_INT32", "tensorShape": {"dim": [{"size": "4"}]}}}, "dtype": {"type": "DT_INT32"}}}, {"name": "PartitionedCall/model_2/tf.reshape_1/Reshape/shape", "op": "Const", "attr": {"value": {"tensor": {"dtype": "DT_INT32", "tensorShape": {"dim": [{"size": "2"}]}}}, "dtype": {"type": "DT_INT32"}}}, {"name": "PartitionedCall/model_2/tf.math.reduce_min_1/Const", "op": "Const", "attr": {"dtype": {"type": "DT_INT32"}, "value": {"tensor": {"dtype": "DT_INT32", "tensorShape": {"dim": [{"size": "2"}]}}}}}, {"name": "ConstantFolding/PartitionedCall/model_2/tf.math.truediv_3/truediv_recip", "op": "Const", "attr": {"value": {"tensor": {"dtype": "DT_FLOAT", "tensorShape": {}}}, "dtype": {"type": "DT_FLOAT"}}}, {"name": "unknown_118", "op": "Const", "attr": {"dtype": {"type": "DT_FLOAT"}, "value": {"tensor": {"dtype": "DT_FLOAT", "tensorShape": {"dim": [{"size": "1024"}, {"size": "2"}]}}}}}, {"name": "unknown_122", "op": "Const", "attr": {"dtype": {"type": "DT_FLOAT"}, "value": {"tensor": {"dtype": "DT_FLOAT", "tensorShape": {"dim": [{"size": "2"}]}}}}}, {"name": "PartitionedCall/model_2/tf.clip_by_value_1/clip_by_value/Minimum/y", "op": "Const", "attr": {"value": {"tensor": {"dtype": "DT_FLOAT", "tensorShape": {}}}, "dtype": {"type": "DT_FLOAT"}}}, {"name": "PartitionedCall/model_2/tf.clip_by_value_1/clip_by_value/y", "op": "Const", "attr": {"dtype": {"type": "DT_FLOAT"}, "value": {"tensor": {"dtype": "DT_FLOAT", "tensorShape": {}}}}}, {"name": "PartitionedCall/model_2/tf.clip_by_value/clip_by_value/Minimum/y", "op": "Const", "attr": {"value": {"tensor": {"dtype": "DT_FLOAT", "tensorShape": {}}}, "dtype": {"type": "DT_FLOAT"}}}, {"name": "PartitionedCall/model_2/tf.clip_by_value/clip_by_value/y", "op": "Const", "attr": {"value": {"tensor": {"dtype": "DT_FLOAT", "tensorShape": {}}}, "dtype": {"type": "DT_FLOAT"}}}, {"name": "unknown_112", "op": "Const", "attr": {"value": {"tensor": {"dtype": "DT_FLOAT", "tensorShape": {}}}, "dtype": {"type": "DT_FLOAT"}}}, {"name": "PartitionedCall/model_2/tf.math.reduce_max/Const", "op": "Const", "attr": {"value": {"tensor": {"dtype": "DT_INT32", "tensorShape": {"dim": [{"size": "2"}]}}}, "dtype": {"type": "DT_INT32"}}}, {"name": "unknown_111", "op": "Const", "attr": {"dtype": {"type": "DT_FLOAT"}, "value": {"tensor": {"dtype": "DT_FLOAT", "tensorShape": {}}}}}, {"name": "unknown", "op": "Const", "attr": {"value": {"tensor": {"dtype": "DT_INT32", "tensorShape": {"dim": [{"size": "4"}, {"size": "2"}]}}}, "dtype": {"type": "DT_INT32"}}}, {"name": "PartitionedCall/model_2/tf.compat.v1.transpose/transpose/perm", "op": "Const", "attr": {"value": {"tensor": {"dtype": "DT_INT32", "tensorShape": {"dim": [{"size": "4"}]}}}, "dtype": {"type": "DT_INT32"}}}, {"name": "PartitionedCall/model_2/tf.compat.v1.transpose_1/transpose/perm", "op": "Const", "attr": {"value": {"tensor": {"dtype": "DT_INT32", "tensorShape": {"dim": [{"size": "4"}]}}}, "dtype": {"type": "DT_INT32"}}}, {"name": "unknown_0", "op": "Const", "attr": {"value": {"tensor": {"dtype": "DT_FLOAT", "tensorShape": {"dim": [{"size": "3"}, {"size": "3"}, {"size": "3"}, {"size": "48"}]}}}, "dtype": {"type": "DT_FLOAT"}}}, {"name": "unknown_1", "op": "Const", "attr": {"dtype": {"type": "DT_FLOAT"}, "value": {"tensor": {"dtype": "DT_FLOAT", "tensorShape": {"dim": [{"size": "48"}]}}}}}, {"name": "unknown_2", "op": "Const", "attr": {"value": {"tensor": {"dtype": "DT_INT32", "tensorShape": {"dim": [{"size": "4"}, {"size": "2"}]}}}, "dtype": {"type": "DT_INT32"}}}, {"name": "unknown_3", "op": "Const", "attr": {"value": {"tensor": {"dtype": "DT_FLOAT", "tensorShape": {"dim": [{"size": "3"}, {"size": "3"}, {"size": "48"}, {"size": "1"}]}}}, "dtype": {"type": "DT_FLOAT"}}}, {"name": "unknown_4", "op": "Const", "attr": {"dtype": {"type": "DT_FLOAT"}, "value": {"tensor": {"dtype": "DT_FLOAT", "tensorShape": {"dim": [{"size": "48"}]}}}}}, {"name": "unknown_5", "op": "Const", "attr": {"dtype": {"type": "DT_FLOAT"}, "value": {"tensor": {"dtype": "DT_FLOAT", "tensorShape": {"dim": [{"size": "1"}, {"size": "1"}, {"size": "48"}, {"size": "48"}]}}}}}, {"name": "unknown_6", "op": "Const", "attr": {"value": {"tensor": {"dtype": "DT_FLOAT", "tensorShape": {"dim": [{"size": "48"}]}}}, "dtype": {"type": "DT_FLOAT"}}}, {"name": "unknown_7", "op": "Const", "attr": {"value": {"tensor": {"dtype": "DT_INT32", "tensorShape": {"dim": [{"size": "4"}, {"size": "2"}]}}}, "dtype": {"type": "DT_INT32"}}}, {"name": "unknown_8", "op": "Const", "attr": {"dtype": {"type": "DT_FLOAT"}, "value": {"tensor": {"dtype": "DT_FLOAT", "tensorShape": {"dim": [{"size": "3"}, {"size": "3"}, {"size": "48"}, {"size": "1"}]}}}}}, {"name": "unknown_9", "op": "Const", "attr": {"value": {"tensor": {"dtype": "DT_FLOAT", "tensorShape": {"dim": [{"size": "48"}]}}}, "dtype": {"type": "DT_FLOAT"}}}, {"name": "unknown_10", "op": "Const", "attr": {"value": {"tensor": {"dtype": "DT_FLOAT", "tensorShape": {"dim": [{"size": "1"}, {"size": "1"}, {"size": "48"}, {"size": "48"}]}}}, "dtype": {"type": "DT_FLOAT"}}}, {"name": "unknown_11", "op": "Const", "attr": {"value": {"tensor": {"dtype": "DT_FLOAT", "tensorShape": {"dim": [{"size": "48"}]}}}, "dtype": {"type": "DT_FLOAT"}}}, {"name": "unknown_12", "op": "Const", "attr": {"value": {"tensor": {"dtype": "DT_INT32", "tensorShape": {"dim": [{"size": "4"}, {"size": "2"}]}}}, "dtype": {"type": "DT_INT32"}}}, {"name": "unknown_13", "op": "Const", "attr": {"dtype": {"type": "DT_FLOAT"}, "value": {"tensor": {"dtype": "DT_FLOAT", "tensorShape": {"dim": [{"size": "3"}, {"size": "3"}, {"size": "48"}, {"size": "1"}]}}}}}, {"name": "unknown_14", "op": "Const", "attr": {"dtype": {"type": "DT_FLOAT"}, "value": {"tensor": {"dtype": "DT_FLOAT", "tensorShape": {"dim": [{"size": "48"}]}}}}}, {"name": "unknown_15", "op": "Const", "attr": {"value": {"tensor": {"dtype": "DT_FLOAT", "tensorShape": {"dim": [{"size": "1"}, {"size": "1"}, {"size": "48"}, {"size": "128"}]}}}, "dtype": {"type": "DT_FLOAT"}}}, {"name": "unknown_16", "op": "Const", "attr": {"dtype": {"type": "DT_FLOAT"}, "value": {"tensor": {"dtype": "DT_FLOAT", "tensorShape": {"dim": [{"size": "128"}]}}}}}, {"name": "unknown_17", "op": "Const", "attr": {"dtype": {"type": "DT_INT32"}, "value": {"tensor": {"dtype": "DT_INT32", "tensorShape": {"dim": [{"size": "4"}, {"size": "2"}]}}}}}, {"name": "unknown_18", "op": "Const", "attr": {"dtype": {"type": "DT_FLOAT"}, "value": {"tensor": {"dtype": "DT_FLOAT", "tensorShape": {"dim": [{"size": "3"}, {"size": "3"}, {"size": "128"}, {"size": "1"}]}}}}}, {"name": "unknown_19", "op": "Const", "attr": {"value": {"tensor": {"dtype": "DT_FLOAT", "tensorShape": {"dim": [{"size": "128"}]}}}, "dtype": {"type": "DT_FLOAT"}}}, {"name": "unknown_20", "op": "Const", "attr": {"value": {"tensor": {"dtype": "DT_FLOAT", "tensorShape": {"dim": [{"size": "1"}, {"size": "1"}, {"size": "128"}, {"size": "128"}]}}}, "dtype": {"type": "DT_FLOAT"}}}, {"name": "unknown_21", "op": "Const", "attr": {"dtype": {"type": "DT_FLOAT"}, "value": {"tensor": {"dtype": "DT_FLOAT", "tensorShape": {"dim": [{"size": "128"}]}}}}}, {"name": "unknown_22", "op": "Const", "attr": {"dtype": {"type": "DT_INT32"}, "value": {"tensor": {"dtype": "DT_INT32", "tensorShape": {"dim": [{"size": "4"}, {"size": "2"}]}}}}}, {"name": "unknown_23", "op": "Const", "attr": {"value": {"tensor": {"dtype": "DT_FLOAT", "tensorShape": {"dim": [{"size": "3"}, {"size": "3"}, {"size": "128"}, {"size": "1"}]}}}, "dtype": {"type": "DT_FLOAT"}}}, {"name": "unknown_24", "op": "Const", "attr": {"value": {"tensor": {"dtype": "DT_FLOAT", "tensorShape": {"dim": [{"size": "128"}]}}}, "dtype": {"type": "DT_FLOAT"}}}, {"name": "unknown_25", "op": "Const", "attr": {"value": {"tensor": {"dtype": "DT_FLOAT", "tensorShape": {"dim": [{"size": "1"}, {"size": "1"}, {"size": "128"}, {"size": "128"}]}}}, "dtype": {"type": "DT_FLOAT"}}}, {"name": "unknown_26", "op": "Const", "attr": {"value": {"tensor": {"dtype": "DT_FLOAT", "tensorShape": {"dim": [{"size": "128"}]}}}, "dtype": {"type": "DT_FLOAT"}}}, {"name": "unknown_27", "op": "Const", "attr": {"value": {"tensor": {"dtype": "DT_INT32", "tensorShape": {"dim": [{"size": "4"}, {"size": "2"}]}}}, "dtype": {"type": "DT_INT32"}}}, {"name": "unknown_28", "op": "Const", "attr": {"dtype": {"type": "DT_FLOAT"}, "value": {"tensor": {"dtype": "DT_FLOAT", "tensorShape": {"dim": [{"size": "3"}, {"size": "3"}, {"size": "128"}, {"size": "1"}]}}}}}, {"name": "unknown_29", "op": "Const", "attr": {"dtype": {"type": "DT_FLOAT"}, "value": {"tensor": {"dtype": "DT_FLOAT", "tensorShape": {"dim": [{"size": "128"}]}}}}}, {"name": "unknown_30", "op": "Const", "attr": {"dtype": {"type": "DT_FLOAT"}, "value": {"tensor": {"dtype": "DT_FLOAT", "tensorShape": {"dim": [{"size": "1"}, {"size": "1"}, {"size": "128"}, {"size": "128"}]}}}}}, {"name": "unknown_31", "op": "Const", "attr": {"dtype": {"type": "DT_FLOAT"}, "value": {"tensor": {"dtype": "DT_FLOAT", "tensorShape": {"dim": [{"size": "128"}]}}}}}, {"name": "unknown_32", "op": "Const", "attr": {"value": {"tensor": {"dtype": "DT_INT32", "tensorShape": {"dim": [{"size": "4"}, {"size": "2"}]}}}, "dtype": {"type": "DT_INT32"}}}, {"name": "unknown_33", "op": "Const", "attr": {"value": {"tensor": {"dtype": "DT_FLOAT", "tensorShape": {"dim": [{"size": "3"}, {"size": "3"}, {"size": "128"}, {"size": "1"}]}}}, "dtype": {"type": "DT_FLOAT"}}}, {"name": "unknown_34", "op": "Const", "attr": {"value": {"tensor": {"dtype": "DT_FLOAT", "tensorShape": {"dim": [{"size": "128"}]}}}, "dtype": {"type": "DT_FLOAT"}}}, {"name": "unknown_35", "op": "Const", "attr": {"dtype": {"type": "DT_FLOAT"}, "value": {"tensor": {"dtype": "DT_FLOAT", "tensorShape": {"dim": [{"size": "1"}, {"size": "1"}, {"size": "128"}, {"size": "128"}]}}}}}, {"name": "unknown_36", "op": "Const", "attr": {"dtype": {"type": "DT_FLOAT"}, "value": {"tensor": {"dtype": "DT_FLOAT", "tensorShape": {"dim": [{"size": "128"}]}}}}}, {"name": "unknown_37", "op": "Const", "attr": {"dtype": {"type": "DT_INT32"}, "value": {"tensor": {"dtype": "DT_INT32", "tensorShape": {"dim": [{"size": "4"}, {"size": "2"}]}}}}}, {"name": "unknown_38", "op": "Const", "attr": {"dtype": {"type": "DT_FLOAT"}, "value": {"tensor": {"dtype": "DT_FLOAT", "tensorShape": {"dim": [{"size": "3"}, {"size": "3"}, {"size": "128"}, {"size": "1"}]}}}}}, {"name": "unknown_39", "op": "Const", "attr": {"value": {"tensor": {"dtype": "DT_FLOAT", "tensorShape": {"dim": [{"size": "128"}]}}}, "dtype": {"type": "DT_FLOAT"}}}, {"name": "unknown_40", "op": "Const", "attr": {"value": {"tensor": {"dtype": "DT_FLOAT", "tensorShape": {"dim": [{"size": "1"}, {"size": "1"}, {"size": "128"}, {"size": "128"}]}}}, "dtype": {"type": "DT_FLOAT"}}}, {"name": "unknown_41", "op": "Const", "attr": {"dtype": {"type": "DT_FLOAT"}, "value": {"tensor": {"dtype": "DT_FLOAT", "tensorShape": {"dim": [{"size": "128"}]}}}}}, {"name": "unknown_42", "op": "Const", "attr": {"dtype": {"type": "DT_INT32"}, "value": {"tensor": {"dtype": "DT_INT32", "tensorShape": {"dim": [{"size": "4"}, {"size": "2"}]}}}}}, {"name": "unknown_43", "op": "Const", "attr": {"dtype": {"type": "DT_FLOAT"}, "value": {"tensor": {"dtype": "DT_FLOAT", "tensorShape": {"dim": [{"size": "3"}, {"size": "3"}, {"size": "128"}, {"size": "1"}]}}}}}, {"name": "unknown_44", "op": "Const", "attr": {"dtype": {"type": "DT_FLOAT"}, "value": {"tensor": {"dtype": "DT_FLOAT", "tensorShape": {"dim": [{"size": "128"}]}}}}}, {"name": "unknown_45", "op": "Const", "attr": {"dtype": {"type": "DT_FLOAT"}, "value": {"tensor": {"dtype": "DT_FLOAT", "tensorShape": {"dim": [{"size": "1"}, {"size": "1"}, {"size": "128"}, {"size": "128"}]}}}}}, {"name": "unknown_46", "op": "Const", "attr": {"dtype": {"type": "DT_FLOAT"}, "value": {"tensor": {"dtype": "DT_FLOAT", "tensorShape": {"dim": [{"size": "128"}]}}}}}, {"name": "unknown_47", "op": "Const", "attr": {"value": {"tensor": {"dtype": "DT_INT32", "tensorShape": {"dim": [{"size": "4"}, {"size": "2"}]}}}, "dtype": {"type": "DT_INT32"}}}, {"name": "unknown_48", "op": "Const", "attr": {"dtype": {"type": "DT_FLOAT"}, "value": {"tensor": {"dtype": "DT_FLOAT", "tensorShape": {"dim": [{"size": "3"}, {"size": "3"}, {"size": "128"}, {"size": "1"}]}}}}}, {"name": "unknown_49", "op": "Const", "attr": {"value": {"tensor": {"dtype": "DT_FLOAT", "tensorShape": {"dim": [{"size": "128"}]}}}, "dtype": {"type": "DT_FLOAT"}}}, {"name": "unknown_50", "op": "Const", "attr": {"value": {"tensor": {"dtype": "DT_FLOAT", "tensorShape": {"dim": [{"size": "1"}, {"size": "1"}, {"size": "128"}, {"size": "128"}]}}}, "dtype": {"type": "DT_FLOAT"}}}, {"name": "unknown_51", "op": "Const", "attr": {"dtype": {"type": "DT_FLOAT"}, "value": {"tensor": {"dtype": "DT_FLOAT", "tensorShape": {"dim": [{"size": "128"}]}}}}}, {"name": "unknown_52", "op": "Const", "attr": {"dtype": {"type": "DT_INT32"}, "value": {"tensor": {"dtype": "DT_INT32", "tensorShape": {"dim": [{"size": "4"}, {"size": "2"}]}}}}}, {"name": "unknown_53", "op": "Const", "attr": {"dtype": {"type": "DT_FLOAT"}, "value": {"tensor": {"dtype": "DT_FLOAT", "tensorShape": {"dim": [{"size": "3"}, {"size": "3"}, {"size": "128"}, {"size": "1"}]}}}}}, {"name": "unknown_54", "op": "Const", "attr": {"dtype": {"type": "DT_FLOAT"}, "value": {"tensor": {"dtype": "DT_FLOAT", "tensorShape": {"dim": [{"size": "128"}]}}}}}, {"name": "unknown_55", "op": "Const", "attr": {"value": {"tensor": {"dtype": "DT_FLOAT", "tensorShape": {"dim": [{"size": "1"}, {"size": "1"}, {"size": "128"}, {"size": "256"}]}}}, "dtype": {"type": "DT_FLOAT"}}}, {"name": "unknown_56", "op": "Const", "attr": {"value": {"tensor": {"dtype": "DT_FLOAT", "tensorShape": {"dim": [{"size": "256"}]}}}, "dtype": {"type": "DT_FLOAT"}}}, {"name": "unknown_57", "op": "Const", "attr": {"value": {"tensor": {"dtype": "DT_INT32", "tensorShape": {"dim": [{"size": "4"}, {"size": "2"}]}}}, "dtype": {"type": "DT_INT32"}}}, {"name": "unknown_58", "op": "Const", "attr": {"value": {"tensor": {"dtype": "DT_FLOAT", "tensorShape": {"dim": [{"size": "3"}, {"size": "3"}, {"size": "256"}, {"size": "1"}]}}}, "dtype": {"type": "DT_FLOAT"}}}, {"name": "unknown_59", "op": "Const", "attr": {"value": {"tensor": {"dtype": "DT_FLOAT", "tensorShape": {"dim": [{"size": "256"}]}}}, "dtype": {"type": "DT_FLOAT"}}}, {"name": "unknown_60", "op": "Const", "attr": {"dtype": {"type": "DT_FLOAT"}, "value": {"tensor": {"dtype": "DT_FLOAT", "tensorShape": {"dim": [{"size": "1"}, {"size": "1"}, {"size": "256"}, {"size": "256"}]}}}}}, {"name": "unknown_61", "op": "Const", "attr": {"dtype": {"type": "DT_FLOAT"}, "value": {"tensor": {"dtype": "DT_FLOAT", "tensorShape": {"dim": [{"size": "256"}]}}}}}, {"name": "unknown_62", "op": "Const", "attr": {"dtype": {"type": "DT_INT32"}, "value": {"tensor": {"dtype": "DT_INT32", "tensorShape": {"dim": [{"size": "4"}, {"size": "2"}]}}}}}, {"name": "unknown_63", "op": "Const", "attr": {"value": {"tensor": {"dtype": "DT_FLOAT", "tensorShape": {"dim": [{"size": "3"}, {"size": "3"}, {"size": "256"}, {"size": "1"}]}}}, "dtype": {"type": "DT_FLOAT"}}}, {"name": "unknown_64", "op": "Const", "attr": {"value": {"tensor": {"dtype": "DT_FLOAT", "tensorShape": {"dim": [{"size": "256"}]}}}, "dtype": {"type": "DT_FLOAT"}}}, {"name": "unknown_65", "op": "Const", "attr": {"dtype": {"type": "DT_FLOAT"}, "value": {"tensor": {"dtype": "DT_FLOAT", "tensorShape": {"dim": [{"size": "1"}, {"size": "1"}, {"size": "256"}, {"size": "256"}]}}}}}, {"name": "unknown_66", "op": "Const", "attr": {"dtype": {"type": "DT_FLOAT"}, "value": {"tensor": {"dtype": "DT_FLOAT", "tensorShape": {"dim": [{"size": "256"}]}}}}}, {"name": "unknown_67", "op": "Const", "attr": {"dtype": {"type": "DT_INT32"}, "value": {"tensor": {"dtype": "DT_INT32", "tensorShape": {"dim": [{"size": "4"}, {"size": "2"}]}}}}}, {"name": "unknown_68", "op": "Const", "attr": {"dtype": {"type": "DT_FLOAT"}, "value": {"tensor": {"dtype": "DT_FLOAT", "tensorShape": {"dim": [{"size": "3"}, {"size": "3"}, {"size": "256"}, {"size": "1"}]}}}}}, {"name": "unknown_69", "op": "Const", "attr": {"dtype": {"type": "DT_FLOAT"}, "value": {"tensor": {"dtype": "DT_FLOAT", "tensorShape": {"dim": [{"size": "256"}]}}}}}, {"name": "unknown_70", "op": "Const", "attr": {"value": {"tensor": {"dtype": "DT_FLOAT", "tensorShape": {"dim": [{"size": "1"}, {"size": "1"}, {"size": "256"}, {"size": "256"}]}}}, "dtype": {"type": "DT_FLOAT"}}}, {"name": "unknown_71", "op": "Const", "attr": {"value": {"tensor": {"dtype": "DT_FLOAT", "tensorShape": {"dim": [{"size": "256"}]}}}, "dtype": {"type": "DT_FLOAT"}}}, {"name": "unknown_72", "op": "Const", "attr": {"value": {"tensor": {"dtype": "DT_INT32", "tensorShape": {"dim": [{"size": "4"}, {"size": "2"}]}}}, "dtype": {"type": "DT_INT32"}}}, {"name": "unknown_73", "op": "Const", "attr": {"dtype": {"type": "DT_FLOAT"}, "value": {"tensor": {"dtype": "DT_FLOAT", "tensorShape": {"dim": [{"size": "3"}, {"size": "3"}, {"size": "256"}, {"size": "1"}]}}}}}, {"name": "unknown_74", "op": "Const", "attr": {"dtype": {"type": "DT_FLOAT"}, "value": {"tensor": {"dtype": "DT_FLOAT", "tensorShape": {"dim": [{"size": "256"}]}}}}}, {"name": "unknown_75", "op": "Const", "attr": {"value": {"tensor": {"dtype": "DT_FLOAT", "tensorShape": {"dim": [{"size": "1"}, {"size": "1"}, {"size": "256"}, {"size": "256"}]}}}, "dtype": {"type": "DT_FLOAT"}}}, {"name": "unknown_76", "op": "Const", "attr": {"dtype": {"type": "DT_FLOAT"}, "value": {"tensor": {"dtype": "DT_FLOAT", "tensorShape": {"dim": [{"size": "256"}]}}}}}, {"name": "unknown_77", "op": "Const", "attr": {"dtype": {"type": "DT_INT32"}, "value": {"tensor": {"dtype": "DT_INT32", "tensorShape": {"dim": [{"size": "4"}, {"size": "2"}]}}}}}, {"name": "unknown_78", "op": "Const", "attr": {"dtype": {"type": "DT_FLOAT"}, "value": {"tensor": {"dtype": "DT_FLOAT", "tensorShape": {"dim": [{"size": "3"}, {"size": "3"}, {"size": "256"}, {"size": "1"}]}}}}}, {"name": "unknown_79", "op": "Const", "attr": {"value": {"tensor": {"dtype": "DT_FLOAT", "tensorShape": {"dim": [{"size": "256"}]}}}, "dtype": {"type": "DT_FLOAT"}}}, {"name": "unknown_80", "op": "Const", "attr": {"value": {"tensor": {"dtype": "DT_FLOAT", "tensorShape": {"dim": [{"size": "1"}, {"size": "1"}, {"size": "256"}, {"size": "256"}]}}}, "dtype": {"type": "DT_FLOAT"}}}, {"name": "unknown_81", "op": "Const", "attr": {"value": {"tensor": {"dtype": "DT_FLOAT", "tensorShape": {"dim": [{"size": "256"}]}}}, "dtype": {"type": "DT_FLOAT"}}}, {"name": "unknown_82", "op": "Const", "attr": {"dtype": {"type": "DT_INT32"}, "value": {"tensor": {"dtype": "DT_INT32", "tensorShape": {"dim": [{"size": "4"}, {"size": "2"}]}}}}}, {"name": "unknown_83", "op": "Const", "attr": {"value": {"tensor": {"dtype": "DT_FLOAT", "tensorShape": {"dim": [{"size": "3"}, {"size": "3"}, {"size": "256"}, {"size": "1"}]}}}, "dtype": {"type": "DT_FLOAT"}}}, {"name": "unknown_84", "op": "Const", "attr": {"dtype": {"type": "DT_FLOAT"}, "value": {"tensor": {"dtype": "DT_FLOAT", "tensorShape": {"dim": [{"size": "256"}]}}}}}, {"name": "unknown_85", "op": "Const", "attr": {"dtype": {"type": "DT_FLOAT"}, "value": {"tensor": {"dtype": "DT_FLOAT", "tensorShape": {"dim": [{"size": "1"}, {"size": "1"}, {"size": "256"}, {"size": "256"}]}}}}}, {"name": "unknown_86", "op": "Const", "attr": {"value": {"tensor": {"dtype": "DT_FLOAT", "tensorShape": {"dim": [{"size": "256"}]}}}, "dtype": {"type": "DT_FLOAT"}}}, {"name": "unknown_87", "op": "Const", "attr": {"value": {"tensor": {"dtype": "DT_INT32", "tensorShape": {"dim": [{"size": "4"}, {"size": "2"}]}}}, "dtype": {"type": "DT_INT32"}}}, {"name": "unknown_88", "op": "Const", "attr": {"dtype": {"type": "DT_FLOAT"}, "value": {"tensor": {"dtype": "DT_FLOAT", "tensorShape": {"dim": [{"size": "3"}, {"size": "3"}, {"size": "256"}, {"size": "1"}]}}}}}, {"name": "unknown_89", "op": "Const", "attr": {"value": {"tensor": {"dtype": "DT_FLOAT", "tensorShape": {"dim": [{"size": "256"}]}}}, "dtype": {"type": "DT_FLOAT"}}}, {"name": "unknown_90", "op": "Const", "attr": {"dtype": {"type": "DT_FLOAT"}, "value": {"tensor": {"dtype": "DT_FLOAT", "tensorShape": {"dim": [{"size": "1"}, {"size": "1"}, {"size": "256"}, {"size": "256"}]}}}}}, {"name": "unknown_91", "op": "Const", "attr": {"value": {"tensor": {"dtype": "DT_FLOAT", "tensorShape": {"dim": [{"size": "256"}]}}}, "dtype": {"type": "DT_FLOAT"}}}, {"name": "unknown_92", "op": "Const", "attr": {"dtype": {"type": "DT_INT32"}, "value": {"tensor": {"dtype": "DT_INT32", "tensorShape": {"dim": [{"size": "4"}, {"size": "2"}]}}}}}, {"name": "unknown_93", "op": "Const", "attr": {"value": {"tensor": {"dtype": "DT_FLOAT", "tensorShape": {"dim": [{"size": "3"}, {"size": "3"}, {"size": "256"}, {"size": "1"}]}}}, "dtype": {"type": "DT_FLOAT"}}}, {"name": "unknown_94", "op": "Const", "attr": {"dtype": {"type": "DT_FLOAT"}, "value": {"tensor": {"dtype": "DT_FLOAT", "tensorShape": {"dim": [{"size": "256"}]}}}}}, {"name": "unknown_95", "op": "Const", "attr": {"value": {"tensor": {"dtype": "DT_FLOAT", "tensorShape": {"dim": [{"size": "1"}, {"size": "1"}, {"size": "256"}, {"size": "256"}]}}}, "dtype": {"type": "DT_FLOAT"}}}, {"name": "unknown_96", "op": "Const", "attr": {"dtype": {"type": "DT_FLOAT"}, "value": {"tensor": {"dtype": "DT_FLOAT", "tensorShape": {"dim": [{"size": "256"}]}}}}}, {"name": "unknown_97", "op": "Const", "attr": {"dtype": {"type": "DT_INT32"}, "value": {"tensor": {"dtype": "DT_INT32", "tensorShape": {"dim": [{"size": "4"}, {"size": "2"}]}}}}}, {"name": "unknown_98", "op": "Const", "attr": {"value": {"tensor": {"dtype": "DT_FLOAT", "tensorShape": {"dim": [{"size": "3"}, {"size": "3"}, {"size": "256"}, {"size": "1"}]}}}, "dtype": {"type": "DT_FLOAT"}}}, {"name": "unknown_99", "op": "Const", "attr": {"dtype": {"type": "DT_FLOAT"}, "value": {"tensor": {"dtype": "DT_FLOAT", "tensorShape": {"dim": [{"size": "256"}]}}}}}, {"name": "unknown_100", "op": "Const", "attr": {"dtype": {"type": "DT_FLOAT"}, "value": {"tensor": {"dtype": "DT_FLOAT", "tensorShape": {"dim": [{"size": "1"}, {"size": "1"}, {"size": "256"}, {"size": "256"}]}}}}}, {"name": "unknown_101", "op": "Const", "attr": {"value": {"tensor": {"dtype": "DT_FLOAT", "tensorShape": {"dim": [{"size": "256"}]}}}, "dtype": {"type": "DT_FLOAT"}}}, {"name": "unknown_102", "op": "Const", "attr": {"value": {"tensor": {"dtype": "DT_INT32", "tensorShape": {"dim": [{"size": "4"}, {"size": "2"}]}}}, "dtype": {"type": "DT_INT32"}}}, {"name": "unknown_103", "op": "Const", "attr": {"value": {"tensor": {"dtype": "DT_FLOAT", "tensorShape": {"dim": [{"size": "3"}, {"size": "3"}, {"size": "256"}, {"size": "1"}]}}}, "dtype": {"type": "DT_FLOAT"}}}, {"name": "unknown_105", "op": "Const", "attr": {"value": {"tensor": {"dtype": "DT_FLOAT", "tensorShape": {"dim": [{"size": "256"}]}}}, "dtype": {"type": "DT_FLOAT"}}}, {"name": "unknown_107", "op": "Const", "attr": {"dtype": {"type": "DT_FLOAT"}, "value": {"tensor": {"dtype": "DT_FLOAT", "tensorShape": {"dim": [{"size": "1"}, {"size": "1"}, {"size": "256"}, {"size": "1024"}]}}}}}, {"name": "unknown_109", "op": "Const", "attr": {"dtype": {"type": "DT_FLOAT"}, "value": {"tensor": {"dtype": "DT_FLOAT", "tensorShape": {"dim": [{"size": "1024"}]}}}}}, {"name": "PartitionedCall/model_2/tf.math.reduce_mean/Mean/reduction_indices", "op": "Const", "attr": {"value": {"tensor": {"dtype": "DT_INT32", "tensorShape": {"dim": [{"size": "2"}]}}}, "dtype": {"type": "DT_INT32"}}}, {"name": "PartitionedCall/model_2/tf.compat.v1.transpose_4/transpose/perm", "op": "Const", "attr": {"value": {"tensor": {"dtype": "DT_INT32", "tensorShape": {"dim": [{"size": "4"}]}}}, "dtype": {"type": "DT_INT32"}}}, {"name": "PartitionedCall/model_2/tf.reshape/Reshape/shape", "op": "Const", "attr": {"value": {"tensor": {"dtype": "DT_INT32", "tensorShape": {"dim": [{"size": "2"}]}}}, "dtype": {"type": "DT_INT32"}}}, {"name": "PartitionedCall/model_2/tf.math.reduce_min/Const", "op": "Const", "attr": {"value": {"tensor": {"dtype": "DT_INT32", "tensorShape": {"dim": [{"size": "2"}]}}}, "dtype": {"type": "DT_INT32"}}}, {"name": "ConstantFolding/PartitionedCall/model_2/tf.math.truediv/truediv_recip", "op": "Const", "attr": {"dtype": {"type": "DT_FLOAT"}, "value": {"tensor": {"dtype": "DT_FLOAT", "tensorShape": {}}}}}, {"name": "unknown_117", "op": "Const", "attr": {"value": {"tensor": {"dtype": "DT_FLOAT", "tensorShape": {"dim": [{"size": "1024"}, {"size": "1"}]}}}, "dtype": {"type": "DT_FLOAT"}}}, {"name": "unknown_121", "op": "Const", "attr": {"dtype": {"type": "DT_FLOAT"}, "value": {"tensor": {"dtype": "DT_FLOAT", "tensorShape": {"dim": [{"size": "1"}]}}}}}, {"name": "serving_default_input__0", "op": "Placeholder", "attr": {"shape": {"shape": {"dim": [{"size": "1"}, {"size": "320"}, {"size": "3"}, {"size": "320"}]}}, "dtype": {"type": "DT_FLOAT"}}}, {"name": "PartitionedCall/model_2/tf.compat.v1.pad/Pad", "op": "Pad", "input": ["serving_default_input__0", "unknown"], "attr": {"Tpaddings": {"type": "DT_INT32"}, "T": {"type": "DT_FLOAT"}}}, {"name": "PartitionedCall/model_2/tf.compat.v1.transpose/transpose", "op": "Transpose", "input": ["PartitionedCall/model_2/tf.compat.v1.pad/Pad", "PartitionedCall/model_2/tf.compat.v1.transpose/transpose/perm"], "attr": {"Tperm": {"type": "DT_INT32"}, "T": {"type": "DT_FLOAT"}}}, {"name": "PartitionedCall/model_2/tf.compat.v1.transpose_1/transpose", "op": "Transpose", "input": ["PartitionedCall/model_2/tf.compat.v1.transpose/transpose", "PartitionedCall/model_2/tf.compat.v1.transpose_1/transpose/perm"], "attr": {"Tperm": {"type": "DT_INT32"}, "T": {"type": "DT_FLOAT"}}}, {"name": "PartitionedCall/model_2/tf.nn.relu/Relu", "op": "_FusedConv2D", "input": ["PartitionedCall/model_2/tf.compat.v1.transpose_1/transpose", "unknown_0", "unknown_1"], "device": "/device:CPU:0", "attr": {"leakyrelu_alpha": {"f": 0.2}, "fused_ops": {"list": {"s": ["Qmlhc0FkZA==", "UmVsdQ=="]}}, "explicit_paddings": {"list": {}}, "epsilon": {"f": 0.0}, "num_host_args": {"i": "0"}, "T": {"type": "DT_FLOAT"}, "num_args": {"i": "1"}, "strides": {"list": {"i": ["1", "2", "2", "1"]}}, "dilations": {"list": {"i": ["1", "1", "1", "1"]}}, "data_format": {"s": "TkhXQw=="}, "filter_format": {"s": "SFdJTw=="}, "use_cudnn_on_gpu": {"b": true}, "TArgs": {"list": {"type": ["DT_FLOAT"]}}, "padding": {"s": "VkFMSUQ="}}}, {"name": "PartitionedCall/model_2/tf.compat.v1.pad_1/Pad_1", "op": "Pad", "input": ["PartitionedCall/model_2/tf.nn.relu/Relu", "unknown_2"], "attr": {"Tpaddings": {"type": "DT_INT32"}, "T": {"type": "DT_FLOAT"}}}, {"name": "PartitionedCall/model_2/tf.compat.v1.nn.depthwise_conv2d/depthwise", "op": "FusedDepthwiseConv2dNative", "input": ["PartitionedCall/model_2/tf.compat.v1.pad_1/Pad_1", "unknown_3", "unknown_4"], "attr": {"num_args": {"i": "1"}, "padding": {"s": "VkFMSUQ="}, "dilations": {"list": {"i": ["1", "1", "1", "1"]}}, "T": {"type": "DT_FLOAT"}, "strides": {"list": {"i": ["1", "2", "2", "1"]}}, "explicit_paddings": {"list": {}}, "data_format": {"s": "TkhXQw=="}, "fused_ops": {"list": {"s": ["Qmlhc0FkZA==", "UmVsdQ=="]}}}}, {"name": "PartitionedCall/model_2/tf.nn.relu_2/Relu", "op": "_FusedConv2D", "input": ["PartitionedCall/model_2/tf.compat.v1.nn.depthwise_conv2d/depthwise", "unknown_5", "unknown_6"], "device": "/device:CPU:0", "attr": {"epsilon": {"f": 0.0}, "strides": {"list": {"i": ["1", "1", "1", "1"]}}, "leakyrelu_alpha": {"f": 0.2}, "num_host_args": {"i": "0"}, "use_cudnn_on_gpu": {"b": true}, "dilations": {"list": {"i": ["1", "1", "1", "1"]}}, "filter_format": {"s": "SFdJTw=="}, "fused_ops": {"list": {"s": ["Qmlhc0FkZA==", "UmVsdQ=="]}}, "T": {"type": "DT_FLOAT"}, "explicit_paddings": {"list": {}}, "padding": {"s": "U0FNRQ=="}, "TArgs": {"list": {"type": ["DT_FLOAT"]}}, "num_args": {"i": "1"}, "data_format": {"s": "TkhXQw=="}}}, {"name": "PartitionedCall/model_2/tf.compat.v1.pad_2/Pad_2", "op": "Pad", "input": ["PartitionedCall/model_2/tf.nn.relu_2/Relu", "unknown_7"], "attr": {"Tpaddings": {"type": "DT_INT32"}, "T": {"type": "DT_FLOAT"}}}, {"name": "PartitionedCall/model_2/tf.compat.v1.nn.depthwise_conv2d_1/depthwise", "op": "FusedDepthwiseConv2dNative", "input": ["PartitionedCall/model_2/tf.compat.v1.pad_2/Pad_2", "unknown_8", "unknown_9"], "attr": {"T": {"type": "DT_FLOAT"}, "strides": {"list": {"i": ["1", "1", "1", "1"]}}, "dilations": {"list": {"i": ["1", "1", "1", "1"]}}, "data_format": {"s": "TkhXQw=="}, "padding": {"s": "VkFMSUQ="}, "fused_ops": {"list": {"s": ["Qmlhc0FkZA==", "UmVsdQ=="]}}, "explicit_paddings": {"list": {}}, "num_args": {"i": "1"}}}, {"name": "PartitionedCall/model_2/tf.nn.relu_4/Relu", "op": "_FusedConv2D", "input": ["PartitionedCall/model_2/tf.compat.v1.nn.depthwise_conv2d_1/depthwise", "unknown_10", "unknown_11"], "device": "/device:CPU:0", "attr": {"explicit_paddings": {"list": {}}, "T": {"type": "DT_FLOAT"}, "epsilon": {"f": 0.0}, "filter_format": {"s": "SFdJTw=="}, "padding": {"s": "U0FNRQ=="}, "dilations": {"list": {"i": ["1", "1", "1", "1"]}}, "leakyrelu_alpha": {"f": 0.2}, "use_cudnn_on_gpu": {"b": true}, "TArgs": {"list": {"type": ["DT_FLOAT"]}}, "num_host_args": {"i": "0"}, "strides": {"list": {"i": ["1", "1", "1", "1"]}}, "data_format": {"s": "TkhXQw=="}, "fused_ops": {"list": {"s": ["Qmlhc0FkZA==", "UmVsdQ=="]}}, "num_args": {"i": "1"}}}, {"name": "PartitionedCall/model_2/tf.compat.v1.pad_3/Pad_3", "op": "Pad", "input": ["PartitionedCall/model_2/tf.nn.relu_4/Relu", "unknown_12"], "attr": {"T": {"type": "DT_FLOAT"}, "Tpaddings": {"type": "DT_INT32"}}}, {"name": "PartitionedCall/model_2/tf.compat.v1.nn.depthwise_conv2d_2/depthwise", "op": "FusedDepthwiseConv2dNative", "input": ["PartitionedCall/model_2/tf.compat.v1.pad_3/Pad_3", "unknown_13", "unknown_14"], "attr": {"data_format": {"s": "TkhXQw=="}, "strides": {"list": {"i": ["1", "2", "2", "1"]}}, "T": {"type": "DT_FLOAT"}, "explicit_paddings": {"list": {}}, "padding": {"s": "VkFMSUQ="}, "fused_ops": {"list": {"s": ["Qmlhc0FkZA==", "UmVsdQ=="]}}, "dilations": {"list": {"i": ["1", "1", "1", "1"]}}, "num_args": {"i": "1"}}}, {"name": "PartitionedCall/model_2/tf.nn.relu_6/Relu", "op": "_FusedConv2D", "input": ["PartitionedCall/model_2/tf.compat.v1.nn.depthwise_conv2d_2/depthwise", "unknown_15", "unknown_16"], "device": "/device:CPU:0", "attr": {"strides": {"list": {"i": ["1", "1", "1", "1"]}}, "num_host_args": {"i": "0"}, "data_format": {"s": "TkhXQw=="}, "num_args": {"i": "1"}, "fused_ops": {"list": {"s": ["Qmlhc0FkZA==", "UmVsdQ=="]}}, "T": {"type": "DT_FLOAT"}, "explicit_paddings": {"list": {}}, "use_cudnn_on_gpu": {"b": true}, "epsilon": {"f": 0.0}, "TArgs": {"list": {"type": ["DT_FLOAT"]}}, "dilations": {"list": {"i": ["1", "1", "1", "1"]}}, "filter_format": {"s": "SFdJTw=="}, "padding": {"s": "U0FNRQ=="}, "leakyrelu_alpha": {"f": 0.2}}}, {"name": "PartitionedCall/model_2/tf.compat.v1.pad_4/Pad_4", "op": "Pad", "input": ["PartitionedCall/model_2/tf.nn.relu_6/Relu", "unknown_17"], "attr": {"T": {"type": "DT_FLOAT"}, "Tpaddings": {"type": "DT_INT32"}}}, {"name": "PartitionedCall/model_2/tf.compat.v1.nn.depthwise_conv2d_3/depthwise", "op": "FusedDepthwiseConv2dNative", "input": ["PartitionedCall/model_2/tf.compat.v1.pad_4/Pad_4", "unknown_18", "unknown_19"], "attr": {"padding": {"s": "VkFMSUQ="}, "dilations": {"list": {"i": ["1", "1", "1", "1"]}}, "explicit_paddings": {"list": {}}, "T": {"type": "DT_FLOAT"}, "strides": {"list": {"i": ["1", "1", "1", "1"]}}, "data_format": {"s": "TkhXQw=="}, "fused_ops": {"list": {"s": ["Qmlhc0FkZA==", "UmVsdQ=="]}}, "num_args": {"i": "1"}}}, {"name": "PartitionedCall/model_2/tf.nn.relu_8/Relu", "op": "_FusedConv2D", "input": ["PartitionedCall/model_2/tf.compat.v1.nn.depthwise_conv2d_3/depthwise", "unknown_20", "unknown_21"], "device": "/device:CPU:0", "attr": {"num_host_args": {"i": "0"}, "padding": {"s": "U0FNRQ=="}, "use_cudnn_on_gpu": {"b": true}, "TArgs": {"list": {"type": ["DT_FLOAT"]}}, "dilations": {"list": {"i": ["1", "1", "1", "1"]}}, "explicit_paddings": {"list": {}}, "epsilon": {"f": 0.0}, "filter_format": {"s": "SFdJTw=="}, "data_format": {"s": "TkhXQw=="}, "strides": {"list": {"i": ["1", "1", "1", "1"]}}, "fused_ops": {"list": {"s": ["Qmlhc0FkZA==", "UmVsdQ=="]}}, "leakyrelu_alpha": {"f": 0.2}, "T": {"type": "DT_FLOAT"}, "num_args": {"i": "1"}}}, {"name": "PartitionedCall/model_2/tf.compat.v1.pad_5/Pad_5", "op": "Pad", "input": ["PartitionedCall/model_2/tf.nn.relu_8/Relu", "unknown_22"], "attr": {"Tpaddings": {"type": "DT_INT32"}, "T": {"type": "DT_FLOAT"}}}, {"name": "PartitionedCall/model_2/tf.compat.v1.nn.depthwise_conv2d_4/depthwise", "op": "FusedDepthwiseConv2dNative", "input": ["PartitionedCall/model_2/tf.compat.v1.pad_5/Pad_5", "unknown_23", "unknown_24"], "attr": {"strides": {"list": {"i": ["1", "1", "1", "1"]}}, "padding": {"s": "VkFMSUQ="}, "fused_ops": {"list": {"s": ["Qmlhc0FkZA==", "UmVsdQ=="]}}, "dilations": {"list": {"i": ["1", "1", "1", "1"]}}, "data_format": {"s": "TkhXQw=="}, "T": {"type": "DT_FLOAT"}, "num_args": {"i": "1"}, "explicit_paddings": {"list": {}}}}, {"name": "PartitionedCall/model_2/tf.nn.relu_10/Relu", "op": "_FusedConv2D", "input": ["PartitionedCall/model_2/tf.compat.v1.nn.depthwise_conv2d_4/depthwise", "unknown_25", "unknown_26"], "device": "/device:CPU:0", "attr": {"data_format": {"s": "TkhXQw=="}, "num_args": {"i": "1"}, "padding": {"s": "U0FNRQ=="}, "leakyrelu_alpha": {"f": 0.2}, "T": {"type": "DT_FLOAT"}, "filter_format": {"s": "SFdJTw=="}, "strides": {"list": {"i": ["1", "1", "1", "1"]}}, "fused_ops": {"list": {"s": ["Qmlhc0FkZA==", "UmVsdQ=="]}}, "num_host_args": {"i": "0"}, "epsilon": {"f": 0.0}, "use_cudnn_on_gpu": {"b": true}, "TArgs": {"list": {"type": ["DT_FLOAT"]}}, "explicit_paddings": {"list": {}}, "dilations": {"list": {"i": ["1", "1", "1", "1"]}}}}, {"name": "PartitionedCall/model_2/tf.compat.v1.pad_6/Pad_6", "op": "Pad", "input": ["PartitionedCall/model_2/tf.nn.relu_10/Relu", "unknown_27"], "attr": {"T": {"type": "DT_FLOAT"}, "Tpaddings": {"type": "DT_INT32"}}}, {"name": "PartitionedCall/model_2/tf.compat.v1.nn.depthwise_conv2d_5/depthwise", "op": "FusedDepthwiseConv2dNative", "input": ["PartitionedCall/model_2/tf.compat.v1.pad_6/Pad_6", "unknown_28", "unknown_29"], "attr": {"data_format": {"s": "TkhXQw=="}, "T": {"type": "DT_FLOAT"}, "dilations": {"list": {"i": ["1", "1", "1", "1"]}}, "explicit_paddings": {"list": {}}, "fused_ops": {"list": {"s": ["Qmlhc0FkZA==", "UmVsdQ=="]}}, "num_args": {"i": "1"}, "strides": {"list": {"i": ["1", "1", "1", "1"]}}, "padding": {"s": "VkFMSUQ="}}}, {"name": "PartitionedCall/model_2/tf.nn.relu_12/Relu", "op": "_FusedConv2D", "input": ["PartitionedCall/model_2/tf.compat.v1.nn.depthwise_conv2d_5/depthwise", "unknown_30", "unknown_31"], "device": "/device:CPU:0", "attr": {"T": {"type": "DT_FLOAT"}, "strides": {"list": {"i": ["1", "1", "1", "1"]}}, "epsilon": {"f": 0.0}, "explicit_paddings": {"list": {}}, "filter_format": {"s": "SFdJTw=="}, "TArgs": {"list": {"type": ["DT_FLOAT"]}}, "use_cudnn_on_gpu": {"b": true}, "num_host_args": {"i": "0"}, "padding": {"s": "U0FNRQ=="}, "fused_ops": {"list": {"s": ["Qmlhc0FkZA==", "UmVsdQ=="]}}, "data_format": {"s": "TkhXQw=="}, "leakyrelu_alpha": {"f": 0.2}, "dilations": {"list": {"i": ["1", "1", "1", "1"]}}, "num_args": {"i": "1"}}}, {"name": "PartitionedCall/model_2/tf.compat.v1.pad_7/Pad_7", "op": "Pad", "input": ["PartitionedCall/model_2/tf.nn.relu_12/Relu", "unknown_32"], "attr": {"Tpaddings": {"type": "DT_INT32"}, "T": {"type": "DT_FLOAT"}}}, {"name": "PartitionedCall/model_2/tf.compat.v1.nn.depthwise_conv2d_6/depthwise", "op": "FusedDepthwiseConv2dNative", "input": ["PartitionedCall/model_2/tf.compat.v1.pad_7/Pad_7", "unknown_33", "unknown_34"], "attr": {"data_format": {"s": "TkhXQw=="}, "fused_ops": {"list": {"s": ["Qmlhc0FkZA==", "UmVsdQ=="]}}, "padding": {"s": "VkFMSUQ="}, "strides": {"list": {"i": ["1", "1", "1", "1"]}}, "num_args": {"i": "1"}, "explicit_paddings": {"list": {}}, "T": {"type": "DT_FLOAT"}, "dilations": {"list": {"i": ["1", "1", "1", "1"]}}}}, {"name": "PartitionedCall/model_2/tf.nn.relu_14/Relu", "op": "_FusedConv2D", "input": ["PartitionedCall/model_2/tf.compat.v1.nn.depthwise_conv2d_6/depthwise", "unknown_35", "unknown_36"], "device": "/device:CPU:0", "attr": {"epsilon": {"f": 0.0}, "padding": {"s": "U0FNRQ=="}, "leakyrelu_alpha": {"f": 0.2}, "num_host_args": {"i": "0"}, "filter_format": {"s": "SFdJTw=="}, "dilations": {"list": {"i": ["1", "1", "1", "1"]}}, "strides": {"list": {"i": ["1", "1", "1", "1"]}}, "T": {"type": "DT_FLOAT"}, "explicit_paddings": {"list": {}}, "fused_ops": {"list": {"s": ["Qmlhc0FkZA==", "UmVsdQ=="]}}, "num_args": {"i": "1"}, "TArgs": {"list": {"type": ["DT_FLOAT"]}}, "use_cudnn_on_gpu": {"b": true}, "data_format": {"s": "TkhXQw=="}}}, {"name": "PartitionedCall/model_2/tf.compat.v1.pad_8/Pad_8", "op": "Pad", "input": ["PartitionedCall/model_2/tf.nn.relu_14/Relu", "unknown_37"], "attr": {"Tpaddings": {"type": "DT_INT32"}, "T": {"type": "DT_FLOAT"}}}, {"name": "PartitionedCall/model_2/tf.compat.v1.nn.depthwise_conv2d_7/depthwise", "op": "FusedDepthwiseConv2dNative", "input": ["PartitionedCall/model_2/tf.compat.v1.pad_8/Pad_8", "unknown_38", "unknown_39"], "attr": {"dilations": {"list": {"i": ["1", "1", "1", "1"]}}, "strides": {"list": {"i": ["1", "1", "1", "1"]}}, "padding": {"s": "VkFMSUQ="}, "num_args": {"i": "1"}, "T": {"type": "DT_FLOAT"}, "data_format": {"s": "TkhXQw=="}, "explicit_paddings": {"list": {}}, "fused_ops": {"list": {"s": ["Qmlhc0FkZA==", "UmVsdQ=="]}}}}, {"name": "PartitionedCall/model_2/tf.nn.relu_16/Relu", "op": "_FusedConv2D", "input": ["PartitionedCall/model_2/tf.compat.v1.nn.depthwise_conv2d_7/depthwise", "unknown_40", "unknown_41"], "device": "/device:CPU:0", "attr": {"use_cudnn_on_gpu": {"b": true}, "leakyrelu_alpha": {"f": 0.2}, "num_host_args": {"i": "0"}, "dilations": {"list": {"i": ["1", "1", "1", "1"]}}, "strides": {"list": {"i": ["1", "1", "1", "1"]}}, "num_args": {"i": "1"}, "T": {"type": "DT_FLOAT"}, "TArgs": {"list": {"type": ["DT_FLOAT"]}}, "padding": {"s": "U0FNRQ=="}, "data_format": {"s": "TkhXQw=="}, "epsilon": {"f": 0.0}, "filter_format": {"s": "SFdJTw=="}, "explicit_paddings": {"list": {}}, "fused_ops": {"list": {"s": ["Qmlhc0FkZA==", "UmVsdQ=="]}}}}, {"name": "PartitionedCall/model_2/tf.compat.v1.pad_9/Pad_9", "op": "Pad", "input": ["PartitionedCall/model_2/tf.nn.relu_16/Relu", "unknown_42"], "attr": {"T": {"type": "DT_FLOAT"}, "Tpaddings": {"type": "DT_INT32"}}}, {"name": "PartitionedCall/model_2/tf.compat.v1.nn.depthwise_conv2d_8/depthwise", "op": "FusedDepthwiseConv2dNative", "input": ["PartitionedCall/model_2/tf.compat.v1.pad_9/Pad_9", "unknown_43", "unknown_44"], "attr": {"num_args": {"i": "1"}, "fused_ops": {"list": {"s": ["Qmlhc0FkZA==", "UmVsdQ=="]}}, "T": {"type": "DT_FLOAT"}, "padding": {"s": "VkFMSUQ="}, "data_format": {"s": "TkhXQw=="}, "explicit_paddings": {"list": {}}, "strides": {"list": {"i": ["1", "1", "1", "1"]}}, "dilations": {"list": {"i": ["1", "1", "1", "1"]}}}}, {"name": "PartitionedCall/model_2/tf.nn.relu_18/Relu", "op": "_FusedConv2D", "input": ["PartitionedCall/model_2/tf.compat.v1.nn.depthwise_conv2d_8/depthwise", "unknown_45", "unknown_46"], "device": "/device:CPU:0", "attr": {"padding": {"s": "U0FNRQ=="}, "data_format": {"s": "TkhXQw=="}, "filter_format": {"s": "SFdJTw=="}, "epsilon": {"f": 0.0}, "TArgs": {"list": {"type": ["DT_FLOAT"]}}, "dilations": {"list": {"i": ["1", "1", "1", "1"]}}, "leakyrelu_alpha": {"f": 0.2}, "use_cudnn_on_gpu": {"b": true}, "fused_ops": {"list": {"s": ["Qmlhc0FkZA==", "UmVsdQ=="]}}, "explicit_paddings": {"list": {}}, "strides": {"list": {"i": ["1", "1", "1", "1"]}}, "num_host_args": {"i": "0"}, "T": {"type": "DT_FLOAT"}, "num_args": {"i": "1"}}}, {"name": "PartitionedCall/model_2/tf.compat.v1.pad_10/Pad_10", "op": "Pad", "input": ["PartitionedCall/model_2/tf.nn.relu_18/Relu", "unknown_47"], "attr": {"T": {"type": "DT_FLOAT"}, "Tpaddings": {"type": "DT_INT32"}}}, {"name": "PartitionedCall/model_2/tf.compat.v1.nn.depthwise_conv2d_9/depthwise", "op": "FusedDepthwiseConv2dNative", "input": ["PartitionedCall/model_2/tf.compat.v1.pad_10/Pad_10", "unknown_48", "unknown_49"], "attr": {"T": {"type": "DT_FLOAT"}, "dilations": {"list": {"i": ["1", "1", "1", "1"]}}, "strides": {"list": {"i": ["1", "1", "1", "1"]}}, "num_args": {"i": "1"}, "explicit_paddings": {"list": {}}, "data_format": {"s": "TkhXQw=="}, "padding": {"s": "VkFMSUQ="}, "fused_ops": {"list": {"s": ["Qmlhc0FkZA==", "UmVsdQ=="]}}}}, {"name": "PartitionedCall/model_2/tf.nn.relu_20/Relu", "op": "_FusedConv2D", "input": ["PartitionedCall/model_2/tf.compat.v1.nn.depthwise_conv2d_9/depthwise", "unknown_50", "unknown_51"], "device": "/device:CPU:0", "attr": {"use_cudnn_on_gpu": {"b": true}, "filter_format": {"s": "SFdJTw=="}, "explicit_paddings": {"list": {}}, "padding": {"s": "U0FNRQ=="}, "epsilon": {"f": 0.0}, "num_args": {"i": "1"}, "num_host_args": {"i": "0"}, "TArgs": {"list": {"type": ["DT_FLOAT"]}}, "T": {"type": "DT_FLOAT"}, "fused_ops": {"list": {"s": ["Qmlhc0FkZA==", "UmVsdQ=="]}}, "strides": {"list": {"i": ["1", "1", "1", "1"]}}, "dilations": {"list": {"i": ["1", "1", "1", "1"]}}, "data_format": {"s": "TkhXQw=="}, "leakyrelu_alpha": {"f": 0.2}}}, {"name": "PartitionedCall/model_2/tf.compat.v1.pad_11/Pad_11", "op": "Pad", "input": ["PartitionedCall/model_2/tf.nn.relu_20/Relu", "unknown_52"], "attr": {"T": {"type": "DT_FLOAT"}, "Tpaddings": {"type": "DT_INT32"}}}, {"name": "PartitionedCall/model_2/tf.compat.v1.nn.depthwise_conv2d_10/depthwise", "op": "FusedDepthwiseConv2dNative", "input": ["PartitionedCall/model_2/tf.compat.v1.pad_11/Pad_11", "unknown_53", "unknown_54"], "attr": {"fused_ops": {"list": {"s": ["Qmlhc0FkZA==", "UmVsdQ=="]}}, "num_args": {"i": "1"}, "T": {"type": "DT_FLOAT"}, "data_format": {"s": "TkhXQw=="}, "padding": {"s": "VkFMSUQ="}, "strides": {"list": {"i": ["1", "2", "2", "1"]}}, "dilations": {"list": {"i": ["1", "1", "1", "1"]}}, "explicit_paddings": {"list": {}}}}, {"name": "PartitionedCall/model_2/tf.nn.relu_22/Relu", "op": "_FusedConv2D", "input": ["PartitionedCall/model_2/tf.compat.v1.nn.depthwise_conv2d_10/depthwise", "unknown_55", "unknown_56"], "device": "/device:CPU:0", "attr": {"fused_ops": {"list": {"s": ["Qmlhc0FkZA==", "UmVsdQ=="]}}, "strides": {"list": {"i": ["1", "1", "1", "1"]}}, "use_cudnn_on_gpu": {"b": true}, "epsilon": {"f": 0.0}, "data_format": {"s": "TkhXQw=="}, "filter_format": {"s": "SFdJTw=="}, "padding": {"s": "U0FNRQ=="}, "dilations": {"list": {"i": ["1", "1", "1", "1"]}}, "explicit_paddings": {"list": {}}, "T": {"type": "DT_FLOAT"}, "num_args": {"i": "1"}, "TArgs": {"list": {"type": ["DT_FLOAT"]}}, "num_host_args": {"i": "0"}, "leakyrelu_alpha": {"f": 0.2}}}, {"name": "PartitionedCall/model_2/tf.compat.v1.pad_12/Pad_12", "op": "Pad", "input": ["PartitionedCall/model_2/tf.nn.relu_22/Relu", "unknown_57"], "attr": {"Tpaddings": {"type": "DT_INT32"}, "T": {"type": "DT_FLOAT"}}}, {"name": "PartitionedCall/model_2/tf.compat.v1.nn.depthwise_conv2d_11/depthwise", "op": "FusedDepthwiseConv2dNative", "input": ["PartitionedCall/model_2/tf.compat.v1.pad_12/Pad_12", "unknown_58", "unknown_59"], "attr": {"fused_ops": {"list": {"s": ["Qmlhc0FkZA==", "UmVsdQ=="]}}, "padding": {"s": "VkFMSUQ="}, "num_args": {"i": "1"}, "strides": {"list": {"i": ["1", "1", "1", "1"]}}, "explicit_paddings": {"list": {}}, "data_format": {"s": "TkhXQw=="}, "dilations": {"list": {"i": ["1", "1", "1", "1"]}}, "T": {"type": "DT_FLOAT"}}}, {"name": "PartitionedCall/model_2/tf.nn.relu_24/Relu", "op": "_FusedConv2D", "input": ["PartitionedCall/model_2/tf.compat.v1.nn.depthwise_conv2d_11/depthwise", "unknown_60", "unknown_61"], "device": "/device:CPU:0", "attr": {"TArgs": {"list": {"type": ["DT_FLOAT"]}}, "dilations": {"list": {"i": ["1", "1", "1", "1"]}}, "epsilon": {"f": 0.0}, "leakyrelu_alpha": {"f": 0.2}, "fused_ops": {"list": {"s": ["Qmlhc0FkZA==", "UmVsdQ=="]}}, "T": {"type": "DT_FLOAT"}, "strides": {"list": {"i": ["1", "1", "1", "1"]}}, "use_cudnn_on_gpu": {"b": true}, "filter_format": {"s": "SFdJTw=="}, "padding": {"s": "U0FNRQ=="}, "num_host_args": {"i": "0"}, "data_format": {"s": "TkhXQw=="}, "num_args": {"i": "1"}, "explicit_paddings": {"list": {}}}}, {"name": "PartitionedCall/model_2/tf.compat.v1.pad_13/Pad_13", "op": "Pad", "input": ["PartitionedCall/model_2/tf.nn.relu_24/Relu", "unknown_62"], "attr": {"T": {"type": "DT_FLOAT"}, "Tpaddings": {"type": "DT_INT32"}}}, {"name": "PartitionedCall/model_2/tf.compat.v1.nn.depthwise_conv2d_12/depthwise", "op": "FusedDepthwiseConv2dNative", "input": ["PartitionedCall/model_2/tf.compat.v1.pad_13/Pad_13", "unknown_63", "unknown_64"], "attr": {"fused_ops": {"list": {"s": ["Qmlhc0FkZA==", "UmVsdQ=="]}}, "num_args": {"i": "1"}, "T": {"type": "DT_FLOAT"}, "strides": {"list": {"i": ["1", "1", "1", "1"]}}, "padding": {"s": "VkFMSUQ="}, "data_format": {"s": "TkhXQw=="}, "explicit_paddings": {"list": {}}, "dilations": {"list": {"i": ["1", "1", "1", "1"]}}}}, {"name": "PartitionedCall/model_2/tf.nn.relu_26/Relu", "op": "_FusedConv2D", "input": ["PartitionedCall/model_2/tf.compat.v1.nn.depthwise_conv2d_12/depthwise", "unknown_65", "unknown_66"], "device": "/device:CPU:0", "attr": {"padding": {"s": "U0FNRQ=="}, "strides": {"list": {"i": ["1", "1", "1", "1"]}}, "fused_ops": {"list": {"s": ["Qmlhc0FkZA==", "UmVsdQ=="]}}, "dilations": {"list": {"i": ["1", "1", "1", "1"]}}, "leakyrelu_alpha": {"f": 0.2}, "epsilon": {"f": 0.0}, "T": {"type": "DT_FLOAT"}, "use_cudnn_on_gpu": {"b": true}, "TArgs": {"list": {"type": ["DT_FLOAT"]}}, "explicit_paddings": {"list": {}}, "filter_format": {"s": "SFdJTw=="}, "num_host_args": {"i": "0"}, "num_args": {"i": "1"}, "data_format": {"s": "TkhXQw=="}}}, {"name": "PartitionedCall/model_2/tf.compat.v1.pad_14/Pad_14", "op": "Pad", "input": ["PartitionedCall/model_2/tf.nn.relu_26/Relu", "unknown_67"], "attr": {"T": {"type": "DT_FLOAT"}, "Tpaddings": {"type": "DT_INT32"}}}, {"name": "PartitionedCall/model_2/tf.compat.v1.nn.depthwise_conv2d_13/depthwise", "op": "FusedDepthwiseConv2dNative", "input": ["PartitionedCall/model_2/tf.compat.v1.pad_14/Pad_14", "unknown_68", "unknown_69"], "attr": {"T": {"type": "DT_FLOAT"}, "fused_ops": {"list": {"s": ["Qmlhc0FkZA==", "UmVsdQ=="]}}, "dilations": {"list": {"i": ["1", "1", "1", "1"]}}, "padding": {"s": "VkFMSUQ="}, "explicit_paddings": {"list": {}}, "data_format": {"s": "TkhXQw=="}, "strides": {"list": {"i": ["1", "1", "1", "1"]}}, "num_args": {"i": "1"}}}, {"name": "PartitionedCall/model_2/tf.nn.relu_28/Relu", "op": "_FusedConv2D", "input": ["PartitionedCall/model_2/tf.compat.v1.nn.depthwise_conv2d_13/depthwise", "unknown_70", "unknown_71"], "device": "/device:CPU:0", "attr": {"num_args": {"i": "1"}, "TArgs": {"list": {"type": ["DT_FLOAT"]}}, "epsilon": {"f": 0.0}, "padding": {"s": "U0FNRQ=="}, "use_cudnn_on_gpu": {"b": true}, "filter_format": {"s": "SFdJTw=="}, "T": {"type": "DT_FLOAT"}, "explicit_paddings": {"list": {}}, "dilations": {"list": {"i": ["1", "1", "1", "1"]}}, "strides": {"list": {"i": ["1", "1", "1", "1"]}}, "num_host_args": {"i": "0"}, "fused_ops": {"list": {"s": ["Qmlhc0FkZA==", "UmVsdQ=="]}}, "leakyrelu_alpha": {"f": 0.2}, "data_format": {"s": "TkhXQw=="}}}, {"name": "PartitionedCall/model_2/tf.compat.v1.pad_15/Pad_15", "op": "Pad", "input": ["PartitionedCall/model_2/tf.nn.relu_28/Relu", "unknown_72"], "attr": {"Tpaddings": {"type": "DT_INT32"}, "T": {"type": "DT_FLOAT"}}}, {"name": "PartitionedCall/model_2/tf.compat.v1.nn.depthwise_conv2d_14/depthwise", "op": "FusedDepthwiseConv2dNative", "input": ["PartitionedCall/model_2/tf.compat.v1.pad_15/Pad_15", "unknown_73", "unknown_74"], "attr": {"data_format": {"s": "TkhXQw=="}, "explicit_paddings": {"list": {}}, "strides": {"list": {"i": ["1", "1", "1", "1"]}}, "num_args": {"i": "1"}, "padding": {"s": "VkFMSUQ="}, "fused_ops": {"list": {"s": ["Qmlhc0FkZA==", "UmVsdQ=="]}}, "T": {"type": "DT_FLOAT"}, "dilations": {"list": {"i": ["1", "1", "1", "1"]}}}}, {"name": "PartitionedCall/model_2/tf.nn.relu_30/Relu", "op": "_FusedConv2D", "input": ["PartitionedCall/model_2/tf.compat.v1.nn.depthwise_conv2d_14/depthwise", "unknown_75", "unknown_76"], "device": "/device:CPU:0", "attr": {"num_host_args": {"i": "0"}, "dilations": {"list": {"i": ["1", "1", "1", "1"]}}, "T": {"type": "DT_FLOAT"}, "epsilon": {"f": 0.0}, "strides": {"list": {"i": ["1", "1", "1", "1"]}}, "use_cudnn_on_gpu": {"b": true}, "padding": {"s": "U0FNRQ=="}, "filter_format": {"s": "SFdJTw=="}, "fused_ops": {"list": {"s": ["Qmlhc0FkZA==", "UmVsdQ=="]}}, "leakyrelu_alpha": {"f": 0.2}, "explicit_paddings": {"list": {}}, "TArgs": {"list": {"type": ["DT_FLOAT"]}}, "num_args": {"i": "1"}, "data_format": {"s": "TkhXQw=="}}}, {"name": "PartitionedCall/model_2/tf.compat.v1.pad_16/Pad_16", "op": "Pad", "input": ["PartitionedCall/model_2/tf.nn.relu_30/Relu", "unknown_77"], "attr": {"T": {"type": "DT_FLOAT"}, "Tpaddings": {"type": "DT_INT32"}}}, {"name": "PartitionedCall/model_2/tf.compat.v1.nn.depthwise_conv2d_15/depthwise", "op": "FusedDepthwiseConv2dNative", "input": ["PartitionedCall/model_2/tf.compat.v1.pad_16/Pad_16", "unknown_78", "unknown_79"], "attr": {"data_format": {"s": "TkhXQw=="}, "T": {"type": "DT_FLOAT"}, "padding": {"s": "VkFMSUQ="}, "dilations": {"list": {"i": ["1", "1", "1", "1"]}}, "explicit_paddings": {"list": {}}, "num_args": {"i": "1"}, "fused_ops": {"list": {"s": ["Qmlhc0FkZA==", "UmVsdQ=="]}}, "strides": {"list": {"i": ["1", "1", "1", "1"]}}}}, {"name": "PartitionedCall/model_2/tf.nn.relu_32/Relu", "op": "_FusedConv2D", "input": ["PartitionedCall/model_2/tf.compat.v1.nn.depthwise_conv2d_15/depthwise", "unknown_80", "unknown_81"], "device": "/device:CPU:0", "attr": {"epsilon": {"f": 0.0}, "explicit_paddings": {"list": {}}, "data_format": {"s": "TkhXQw=="}, "padding": {"s": "U0FNRQ=="}, "num_host_args": {"i": "0"}, "leakyrelu_alpha": {"f": 0.2}, "strides": {"list": {"i": ["1", "1", "1", "1"]}}, "num_args": {"i": "1"}, "T": {"type": "DT_FLOAT"}, "dilations": {"list": {"i": ["1", "1", "1", "1"]}}, "use_cudnn_on_gpu": {"b": true}, "TArgs": {"list": {"type": ["DT_FLOAT"]}}, "fused_ops": {"list": {"s": ["Qmlhc0FkZA==", "UmVsdQ=="]}}, "filter_format": {"s": "SFdJTw=="}}}, {"name": "PartitionedCall/model_2/tf.compat.v1.pad_17/Pad_17", "op": "Pad", "input": ["PartitionedCall/model_2/tf.nn.relu_32/Relu", "unknown_82"], "attr": {"T": {"type": "DT_FLOAT"}, "Tpaddings": {"type": "DT_INT32"}}}, {"name": "PartitionedCall/model_2/tf.compat.v1.nn.depthwise_conv2d_16/depthwise", "op": "FusedDepthwiseConv2dNative", "input": ["PartitionedCall/model_2/tf.compat.v1.pad_17/Pad_17", "unknown_83", "unknown_84"], "attr": {"padding": {"s": "VkFMSUQ="}, "explicit_paddings": {"list": {}}, "strides": {"list": {"i": ["1", "1", "1", "1"]}}, "dilations": {"list": {"i": ["1", "1", "1", "1"]}}, "T": {"type": "DT_FLOAT"}, "num_args": {"i": "1"}, "fused_ops": {"list": {"s": ["Qmlhc0FkZA==", "UmVsdQ=="]}}, "data_format": {"s": "TkhXQw=="}}}, {"name": "PartitionedCall/model_2/tf.nn.relu_34/Relu", "op": "_FusedConv2D", "input": ["PartitionedCall/model_2/tf.compat.v1.nn.depthwise_conv2d_16/depthwise", "unknown_85", "unknown_86"], "device": "/device:CPU:0", "attr": {"TArgs": {"list": {"type": ["DT_FLOAT"]}}, "use_cudnn_on_gpu": {"b": true}, "num_host_args": {"i": "0"}, "leakyrelu_alpha": {"f": 0.2}, "fused_ops": {"list": {"s": ["Qmlhc0FkZA==", "UmVsdQ=="]}}, "padding": {"s": "U0FNRQ=="}, "strides": {"list": {"i": ["1", "1", "1", "1"]}}, "filter_format": {"s": "SFdJTw=="}, "num_args": {"i": "1"}, "epsilon": {"f": 0.0}, "dilations": {"list": {"i": ["1", "1", "1", "1"]}}, "explicit_paddings": {"list": {}}, "data_format": {"s": "TkhXQw=="}, "T": {"type": "DT_FLOAT"}}}, {"name": "PartitionedCall/model_2/tf.compat.v1.pad_18/Pad_18", "op": "Pad", "input": ["PartitionedCall/model_2/tf.nn.relu_34/Relu", "unknown_87"], "attr": {"Tpaddings": {"type": "DT_INT32"}, "T": {"type": "DT_FLOAT"}}}, {"name": "PartitionedCall/model_2/tf.compat.v1.nn.depthwise_conv2d_17/depthwise", "op": "FusedDepthwiseConv2dNative", "input": ["PartitionedCall/model_2/tf.compat.v1.pad_18/Pad_18", "unknown_88", "unknown_89"], "attr": {"num_args": {"i": "1"}, "explicit_paddings": {"list": {}}, "T": {"type": "DT_FLOAT"}, "padding": {"s": "VkFMSUQ="}, "strides": {"list": {"i": ["1", "1", "1", "1"]}}, "data_format": {"s": "TkhXQw=="}, "dilations": {"list": {"i": ["1", "1", "1", "1"]}}, "fused_ops": {"list": {"s": ["Qmlhc0FkZA==", "UmVsdQ=="]}}}}, {"name": "PartitionedCall/model_2/tf.nn.relu_36/Relu", "op": "_FusedConv2D", "input": ["PartitionedCall/model_2/tf.compat.v1.nn.depthwise_conv2d_17/depthwise", "unknown_90", "unknown_91"], "device": "/device:CPU:0", "attr": {"use_cudnn_on_gpu": {"b": true}, "dilations": {"list": {"i": ["1", "1", "1", "1"]}}, "filter_format": {"s": "SFdJTw=="}, "explicit_paddings": {"list": {}}, "epsilon": {"f": 0.0}, "num_host_args": {"i": "0"}, "fused_ops": {"list": {"s": ["Qmlhc0FkZA==", "UmVsdQ=="]}}, "leakyrelu_alpha": {"f": 0.2}, "padding": {"s": "U0FNRQ=="}, "TArgs": {"list": {"type": ["DT_FLOAT"]}}, "num_args": {"i": "1"}, "data_format": {"s": "TkhXQw=="}, "strides": {"list": {"i": ["1", "1", "1", "1"]}}, "T": {"type": "DT_FLOAT"}}}, {"name": "PartitionedCall/model_2/tf.compat.v1.pad_19/Pad_19", "op": "Pad", "input": ["PartitionedCall/model_2/tf.nn.relu_36/Relu", "unknown_92"], "attr": {"Tpaddings": {"type": "DT_INT32"}, "T": {"type": "DT_FLOAT"}}}, {"name": "PartitionedCall/model_2/tf.compat.v1.nn.depthwise_conv2d_18/depthwise", "op": "FusedDepthwiseConv2dNative", "input": ["PartitionedCall/model_2/tf.compat.v1.pad_19/Pad_19", "unknown_93", "unknown_94"], "attr": {"num_args": {"i": "1"}, "T": {"type": "DT_FLOAT"}, "dilations": {"list": {"i": ["1", "1", "1", "1"]}}, "data_format": {"s": "TkhXQw=="}, "padding": {"s": "VkFMSUQ="}, "fused_ops": {"list": {"s": ["Qmlhc0FkZA==", "UmVsdQ=="]}}, "explicit_paddings": {"list": {}}, "strides": {"list": {"i": ["1", "1", "1", "1"]}}}}, {"name": "PartitionedCall/model_2/tf.nn.relu_38/Relu", "op": "_FusedConv2D", "input": ["PartitionedCall/model_2/tf.compat.v1.nn.depthwise_conv2d_18/depthwise", "unknown_95", "unknown_96"], "device": "/device:CPU:0", "attr": {"num_args": {"i": "1"}, "num_host_args": {"i": "0"}, "leakyrelu_alpha": {"f": 0.2}, "epsilon": {"f": 0.0}, "T": {"type": "DT_FLOAT"}, "use_cudnn_on_gpu": {"b": true}, "data_format": {"s": "TkhXQw=="}, "fused_ops": {"list": {"s": ["Qmlhc0FkZA==", "UmVsdQ=="]}}, "dilations": {"list": {"i": ["1", "1", "1", "1"]}}, "padding": {"s": "U0FNRQ=="}, "filter_format": {"s": "SFdJTw=="}, "explicit_paddings": {"list": {}}, "TArgs": {"list": {"type": ["DT_FLOAT"]}}, "strides": {"list": {"i": ["1", "1", "1", "1"]}}}}, {"name": "PartitionedCall/model_2/tf.compat.v1.pad_20/Pad_20", "op": "Pad", "input": ["PartitionedCall/model_2/tf.nn.relu_38/Relu", "unknown_97"], "attr": {"Tpaddings": {"type": "DT_INT32"}, "T": {"type": "DT_FLOAT"}}}, {"name": "PartitionedCall/model_2/tf.compat.v1.nn.depthwise_conv2d_19/depthwise", "op": "FusedDepthwiseConv2dNative", "input": ["PartitionedCall/model_2/tf.compat.v1.pad_20/Pad_20", "unknown_98", "unknown_99"], "attr": {"fused_ops": {"list": {"s": ["Qmlhc0FkZA==", "UmVsdQ=="]}}, "data_format": {"s": "TkhXQw=="}, "dilations": {"list": {"i": ["1", "1", "1", "1"]}}, "num_args": {"i": "1"}, "padding": {"s": "VkFMSUQ="}, "T": {"type": "DT_FLOAT"}, "strides": {"list": {"i": ["1", "1", "1", "1"]}}, "explicit_paddings": {"list": {}}}}, {"name": "PartitionedCall/model_2/tf.nn.relu_40/Relu", "op": "_FusedConv2D", "input": ["PartitionedCall/model_2/tf.compat.v1.nn.depthwise_conv2d_19/depthwise", "unknown_100", "unknown_101"], "device": "/device:CPU:0", "attr": {"padding": {"s": "U0FNRQ=="}, "leakyrelu_alpha": {"f": 0.2}, "filter_format": {"s": "SFdJTw=="}, "epsilon": {"f": 0.0}, "num_args": {"i": "1"}, "num_host_args": {"i": "0"}, "TArgs": {"list": {"type": ["DT_FLOAT"]}}, "data_format": {"s": "TkhXQw=="}, "dilations": {"list": {"i": ["1", "1", "1", "1"]}}, "fused_ops": {"list": {"s": ["Qmlhc0FkZA==", "UmVsdQ=="]}}, "use_cudnn_on_gpu": {"b": true}, "T": {"type": "DT_FLOAT"}, "explicit_paddings": {"list": {}}, "strides": {"list": {"i": ["1", "1", "1", "1"]}}}}, {"name": "PartitionedCall/model_2/tf.compat.v1.pad_21/Pad_21", "op": "Pad", "input": ["PartitionedCall/model_2/tf.nn.relu_40/Relu", "unknown_102"], "attr": {"T": {"type": "DT_FLOAT"}, "Tpaddings": {"type": "DT_INT32"}}}, {"name": "PartitionedCall/model_2/tf.compat.v1.nn.depthwise_conv2d_20/depthwise", "op": "FusedDepthwiseConv2dNative", "input": ["PartitionedCall/model_2/tf.compat.v1.pad_21/Pad_21", "unknown_103", "unknown_105"], "attr": {"num_args": {"i": "1"}, "padding": {"s": "VkFMSUQ="}, "explicit_paddings": {"list": {}}, "T": {"type": "DT_FLOAT"}, "strides": {"list": {"i": ["1", "2", "2", "1"]}}, "data_format": {"s": "TkhXQw=="}, "dilations": {"list": {"i": ["1", "1", "1", "1"]}}, "fused_ops": {"list": {"s": ["Qmlhc0FkZA==", "UmVsdQ=="]}}}}, {"name": "PartitionedCall/model_2/tf.compat.v1.nn.depthwise_conv2d_21/depthwise", "op": "FusedDepthwiseConv2dNative", "input": ["PartitionedCall/model_2/tf.compat.v1.pad_21/Pad_21", "unknown_104", "unknown_106"], "attr": {"explicit_paddings": {"list": {}}, "fused_ops": {"list": {"s": ["Qmlhc0FkZA==", "UmVsdQ=="]}}, "padding": {"s": "VkFMSUQ="}, "T": {"type": "DT_FLOAT"}, "strides": {"list": {"i": ["1", "2", "2", "1"]}}, "data_format": {"s": "TkhXQw=="}, "num_args": {"i": "1"}, "dilations": {"list": {"i": ["1", "1", "1", "1"]}}}}, {"name": "PartitionedCall/model_2/tf.nn.relu_43/Relu", "op": "_FusedConv2D", "input": ["PartitionedCall/model_2/tf.compat.v1.nn.depthwise_conv2d_20/depthwise", "unknown_107", "unknown_109"], "device": "/device:CPU:0", "attr": {"num_host_args": {"i": "0"}, "filter_format": {"s": "SFdJTw=="}, "leakyrelu_alpha": {"f": 0.2}, "use_cudnn_on_gpu": {"b": true}, "strides": {"list": {"i": ["1", "1", "1", "1"]}}, "TArgs": {"list": {"type": ["DT_FLOAT"]}}, "epsilon": {"f": 0.0}, "T": {"type": "DT_FLOAT"}, "dilations": {"list": {"i": ["1", "1", "1", "1"]}}, "explicit_paddings": {"list": {}}, "data_format": {"s": "TkhXQw=="}, "num_args": {"i": "1"}, "fused_ops": {"list": {"s": ["Qmlhc0FkZA==", "UmVsdQ=="]}}, "padding": {"s": "U0FNRQ=="}}}, {"name": "PartitionedCall/model_2/tf.nn.relu_44/Relu", "op": "_FusedConv2D", "input": ["PartitionedCall/model_2/tf.compat.v1.nn.depthwise_conv2d_21/depthwise", "unknown_108", "unknown_110"], "device": "/device:CPU:0", "attr": {"strides": {"list": {"i": ["1", "1", "1", "1"]}}, "filter_format": {"s": "SFdJTw=="}, "num_args": {"i": "1"}, "T": {"type": "DT_FLOAT"}, "explicit_paddings": {"list": {}}, "epsilon": {"f": 0.0}, "padding": {"s": "U0FNRQ=="}, "dilations": {"list": {"i": ["1", "1", "1", "1"]}}, "num_host_args": {"i": "0"}, "leakyrelu_alpha": {"f": 0.2}, "TArgs": {"list": {"type": ["DT_FLOAT"]}}, "fused_ops": {"list": {"s": ["Qmlhc0FkZA==", "UmVsdQ=="]}}, "data_format": {"s": "TkhXQw=="}, "use_cudnn_on_gpu": {"b": true}}}, {"name": "PartitionedCall/model_2/tf.math.reduce_mean/Mean", "op": "Mean", "input": ["PartitionedCall/model_2/tf.nn.relu_43/Relu", "PartitionedCall/model_2/tf.math.reduce_mean/Mean/reduction_indices"], "attr": {"Tidx": {"type": "DT_INT32"}, "T": {"type": "DT_FLOAT"}, "keep_dims": {"b": true}}}, {"name": "PartitionedCall/model_2/tf.math.reduce_mean_1/Mean", "op": "Mean", "input": ["PartitionedCall/model_2/tf.nn.relu_44/Relu", "PartitionedCall/model_2/tf.math.reduce_mean_1/Mean/reduction_indices"], "attr": {"T": {"type": "DT_FLOAT"}, "keep_dims": {"b": true}, "Tidx": {"type": "DT_INT32"}}}, {"name": "PartitionedCall/model_2/tf.compat.v1.transpose_4/transpose", "op": "Transpose", "input": ["PartitionedCall/model_2/tf.math.reduce_mean/Mean", "PartitionedCall/model_2/tf.compat.v1.transpose_4/transpose/perm"], "attr": {"T": {"type": "DT_FLOAT"}, "Tperm": {"type": "DT_INT32"}}}, {"name": "PartitionedCall/model_2/tf.compat.v1.transpose_7/transpose", "op": "Transpose", "input": ["PartitionedCall/model_2/tf.math.reduce_mean_1/Mean", "PartitionedCall/model_2/tf.compat.v1.transpose_7/transpose/perm"], "attr": {"T": {"type": "DT_FLOAT"}, "Tperm": {"type": "DT_INT32"}}}, {"name": "PartitionedCall/model_2/tf.reshape/Reshape", "op": "Reshape", "input": ["PartitionedCall/model_2/tf.compat.v1.transpose_4/transpose", "PartitionedCall/model_2/tf.reshape/Reshape/shape"], "attr": {"Tshape": {"type": "DT_INT32"}, "T": {"type": "DT_FLOAT"}}}, {"name": "PartitionedCall/model_2/tf.reshape_1/Reshape", "op": "Reshape", "input": ["PartitionedCall/model_2/tf.compat.v1.transpose_7/transpose", "PartitionedCall/model_2/tf.reshape_1/Reshape/shape"], "attr": {"T": {"type": "DT_FLOAT"}, "Tshape": {"type": "DT_INT32"}}}, {"name": "PartitionedCall/model_2/tf.math.reduce_max/Max", "op": "Max", "input": ["PartitionedCall/model_2/tf.reshape/Reshape", "PartitionedCall/model_2/tf.math.reduce_max/Const"], "attr": {"keep_dims": {"b": false}, "T": {"type": "DT_FLOAT"}, "Tidx": {"type": "DT_INT32"}}}, {"name": "PartitionedCall/model_2/tf.math.reduce_min/Min", "op": "Min", "input": ["PartitionedCall/model_2/tf.reshape/Reshape", "PartitionedCall/model_2/tf.math.reduce_min/Const"], "attr": {"Tidx": {"type": "DT_INT32"}, "keep_dims": {"b": false}, "T": {"type": "DT_FLOAT"}}}, {"name": "PartitionedCall/model_2/tf.math.reduce_max_1/Max", "op": "Max", "input": ["PartitionedCall/model_2/tf.reshape_1/Reshape", "PartitionedCall/model_2/tf.math.reduce_max_1/Const"], "attr": {"T": {"type": "DT_FLOAT"}, "keep_dims": {"b": false}, "Tidx": {"type": "DT_INT32"}}}, {"name": "PartitionedCall/model_2/tf.math.reduce_min_1/Min", "op": "Min", "input": ["PartitionedCall/model_2/tf.reshape_1/Reshape", "PartitionedCall/model_2/tf.math.reduce_min_1/Const"], "attr": {"T": {"type": "DT_FLOAT"}, "keep_dims": {"b": false}, "Tidx": {"type": "DT_INT32"}}}, {"name": "PartitionedCall/model_2/tf.math.maximum/Maximum", "op": "Maximum", "input": ["unknown_112", "PartitionedCall/model_2/tf.math.reduce_max/Max"], "attr": {"T": {"type": "DT_FLOAT"}}}, {"name": "PartitionedCall/model_2/tf.math.minimum/Minimum", "op": "Minimum", "input": ["unknown_111", "PartitionedCall/model_2/tf.math.reduce_min/Min"], "attr": {"T": {"type": "DT_FLOAT"}}}, {"name": "PartitionedCall/model_2/tf.math.maximum_1/Maximum", "op": "Maximum", "input": ["unknown_114", "PartitionedCall/model_2/tf.math.reduce_max_1/Max"], "attr": {"T": {"type": "DT_FLOAT"}}}, {"name": "PartitionedCall/model_2/tf.math.minimum_1/Minimum", "op": "Minimum", "input": ["unknown_113", "PartitionedCall/model_2/tf.math.reduce_min_1/Min"], "attr": {"T": {"type": "DT_FLOAT"}}}, {"name": "PartitionedCall/model_2/tf.math.subtract/Sub", "op": "Sub", "input": ["PartitionedCall/model_2/tf.math.maximum/Maximum", "PartitionedCall/model_2/tf.math.minimum/Minimum"], "attr": {"T": {"type": "DT_FLOAT"}}}, {"name": "PartitionedCall/model_2/tf.math.subtract_2/Sub", "op": "Sub", "input": ["PartitionedCall/model_2/tf.math.maximum_1/Maximum", "PartitionedCall/model_2/tf.math.minimum_1/Minimum"], "attr": {"T": {"type": "DT_FLOAT"}}}, {"name": "PartitionedCall/model_2/tf.math.truediv/truediv", "op": "Mul", "input": ["PartitionedCall/model_2/tf.math.subtract/Sub", "ConstantFolding/PartitionedCall/model_2/tf.math.truediv/truediv_recip"], "attr": {"T": {"type": "DT_FLOAT"}}}, {"name": "PartitionedCall/model_2/tf.math.truediv_3/truediv", "op": "Mul", "input": ["PartitionedCall/model_2/tf.math.subtract_2/Sub", "ConstantFolding/PartitionedCall/model_2/tf.math.truediv_3/truediv_recip"], "attr": {"T": {"type": "DT_FLOAT"}}}, {"name": "PartitionedCall/model_2/tf.math.truediv_1/truediv", "op": "RealDiv", "input": ["PartitionedCall/model_2/tf.math.minimum/Minimum", "PartitionedCall/model_2/tf.math.truediv/truediv"], "attr": {"T": {"type": "DT_FLOAT"}}}, {"name": "PartitionedCall/model_2/tf.math.truediv_2/truediv", "op": "RealDiv", "input": ["PartitionedCall/model_2/tf.reshape/Reshape", "PartitionedCall/model_2/tf.math.truediv/truediv"], "attr": {"T": {"type": "DT_FLOAT"}}}, {"name": "PartitionedCall/model_2/tf.math.truediv_4/truediv", "op": "RealDiv", "input": ["PartitionedCall/model_2/tf.math.minimum_1/Minimum", "PartitionedCall/model_2/tf.math.truediv_3/truediv"], "attr": {"T": {"type": "DT_FLOAT"}}}, {"name": "PartitionedCall/model_2/tf.math.truediv_5/truediv", "op": "RealDiv", "input": ["PartitionedCall/model_2/tf.reshape_1/Reshape", "PartitionedCall/model_2/tf.math.truediv_3/truediv"], "attr": {"T": {"type": "DT_FLOAT"}}}, {"name": "PartitionedCall/model_2/tf.math.subtract_1/Sub", "op": "Neg", "input": ["PartitionedCall/model_2/tf.math.truediv_1/truediv"], "attr": {"T": {"type": "DT_FLOAT"}}}, {"name": "PartitionedCall/model_2/tf.math.round_1/Round", "op": "Round", "input": ["PartitionedCall/model_2/tf.math.truediv_2/truediv"], "attr": {"T": {"type": "DT_FLOAT"}}}, {"name": "PartitionedCall/model_2/tf.math.subtract_3/Sub", "op": "Neg", "input": ["PartitionedCall/model_2/tf.math.truediv_4/truediv"], "attr": {"T": {"type": "DT_FLOAT"}}}, {"name": "PartitionedCall/model_2/tf.math.round_3/Round", "op": "Round", "input": ["PartitionedCall/model_2/tf.math.truediv_5/truediv"], "attr": {"T": {"type": "DT_FLOAT"}}}, {"name": "PartitionedCall/model_2/tf.math.round/Round", "op": "Round", "input": ["PartitionedCall/model_2/tf.math.subtract_1/Sub"], "attr": {"T": {"type": "DT_FLOAT"}}}, {"name": "PartitionedCall/model_2/tf.math.round_2/Round", "op": "Round", "input": ["PartitionedCall/model_2/tf.math.subtract_3/Sub"], "attr": {"T": {"type": "DT_FLOAT"}}}, {"name": "PartitionedCall/model_2/tf.clip_by_value/clip_by_value/Minimum", "op": "Minimum", "input": ["PartitionedCall/model_2/tf.math.round/Round", "PartitionedCall/model_2/tf.clip_by_value/clip_by_value/Minimum/y"], "attr": {"T": {"type": "DT_FLOAT"}}}, {"name": "PartitionedCall/model_2/tf.clip_by_value_2/clip_by_value/Minimum", "op": "Minimum", "input": ["PartitionedCall/model_2/tf.math.round_2/Round", "PartitionedCall/model_2/tf.clip_by_value_2/clip_by_value/Minimum/y"], "attr": {"T": {"type": "DT_FLOAT"}}}, {"name": "PartitionedCall/model_2/tf.clip_by_value/clip_by_value", "op": "Maximum", "input": ["PartitionedCall/model_2/tf.clip_by_value/clip_by_value/Minimum", "PartitionedCall/model_2/tf.clip_by_value/clip_by_value/y"], "attr": {"T": {"type": "DT_FLOAT"}}}, {"name": "PartitionedCall/model_2/tf.clip_by_value_2/clip_by_value", "op": "Maximum", "input": ["PartitionedCall/model_2/tf.clip_by_value_2/clip_by_value/Minimum", "PartitionedCall/model_2/tf.clip_by_value_2/clip_by_value/y"], "attr": {"T": {"type": "DT_FLOAT"}}}, {"name": "PartitionedCall/model_2/tf.cast_1/Cast", "op": "Cast", "input": ["PartitionedCall/model_2/tf.clip_by_value/clip_by_value"], "attr": {"Truncate": {"b": false}, "SrcT": {"type": "DT_FLOAT"}, "DstT": {"type": "DT_UINT8"}}}, {"name": "PartitionedCall/model_2/tf.__operators__.add/AddV2", "op": "AddV2", "input": ["PartitionedCall/model_2/tf.math.round_1/Round", "PartitionedCall/model_2/tf.clip_by_value/clip_by_value"], "attr": {"T": {"type": "DT_FLOAT"}}}, {"name": "PartitionedCall/model_2/tf.cast_3/Cast", "op": "Cast", "input": ["PartitionedCall/model_2/tf.clip_by_value_2/clip_by_value"], "attr": {"SrcT": {"type": "DT_FLOAT"}, "DstT": {"type": "DT_UINT8"}, "Truncate": {"b": false}}}, {"name": "PartitionedCall/model_2/tf.__operators__.add_1/AddV2", "op": "AddV2", "input": ["PartitionedCall/model_2/tf.math.round_3/Round", "PartitionedCall/model_2/tf.clip_by_value_2/clip_by_value"], "attr": {"T": {"type": "DT_FLOAT"}}}, {"name": "PartitionedCall/model_2/tf.cast_5/Cast", "op": "Cast", "input": ["PartitionedCall/model_2/tf.cast_1/Cast"], "attr": {"SrcT": {"type": "DT_UINT8"}, "DstT": {"type": "DT_FLOAT"}, "Truncate": {"b": false}}}, {"name": "PartitionedCall/model_2/tf.clip_by_value_1/clip_by_value/Minimum", "op": "Minimum", "input": ["PartitionedCall/model_2/tf.__operators__.add/AddV2", "PartitionedCall/model_2/tf.clip_by_value_1/clip_by_value/Minimum/y"], "attr": {"T": {"type": "DT_FLOAT"}}}, {"name": "PartitionedCall/model_2/tf.cast_7/Cast", "op": "Cast", "input": ["PartitionedCall/model_2/tf.cast_3/Cast"], "attr": {"SrcT": {"type": "DT_UINT8"}, "Truncate": {"b": false}, "DstT": {"type": "DT_FLOAT"}}}, {"name": "PartitionedCall/model_2/tf.clip_by_value_3/clip_by_value/Minimum", "op": "Minimum", "input": ["PartitionedCall/model_2/tf.__operators__.add_1/AddV2", "PartitionedCall/model_2/tf.clip_by_value_3/clip_by_value/Minimum/y"], "attr": {"T": {"type": "DT_FLOAT"}}}, {"name": "PartitionedCall/model_2/tf.clip_by_value_1/clip_by_value", "op": "Maximum", "input": ["PartitionedCall/model_2/tf.clip_by_value_1/clip_by_value/Minimum", "PartitionedCall/model_2/tf.clip_by_value_1/clip_by_value/y"], "attr": {"T": {"type": "DT_FLOAT"}}}, {"name": "PartitionedCall/model_2/tf.clip_by_value_3/clip_by_value", "op": "Maximum", "input": ["PartitionedCall/model_2/tf.clip_by_value_3/clip_by_value/Minimum", "PartitionedCall/model_2/tf.clip_by_value_3/clip_by_value/y"], "attr": {"T": {"type": "DT_FLOAT"}}}, {"name": "PartitionedCall/model_2/tf.cast/Cast", "op": "Cast", "input": ["PartitionedCall/model_2/tf.clip_by_value_1/clip_by_value"], "attr": {"DstT": {"type": "DT_UINT8"}, "SrcT": {"type": "DT_FLOAT"}, "Truncate": {"b": false}}}, {"name": "PartitionedCall/model_2/tf.cast_2/Cast", "op": "Cast", "input": ["PartitionedCall/model_2/tf.clip_by_value_3/clip_by_value"], "attr": {"DstT": {"type": "DT_UINT8"}, "Truncate": {"b": false}, "SrcT": {"type": "DT_FLOAT"}}}, {"name": "PartitionedCall/model_2/tf.cast_4/Cast", "op": "Cast", "input": ["PartitionedCall/model_2/tf.cast/Cast"], "attr": {"SrcT": {"type": "DT_UINT8"}, "Truncate": {"b": false}, "DstT": {"type": "DT_FLOAT"}}}, {"name": "PartitionedCall/model_2/tf.cast_6/Cast", "op": "Cast", "input": ["PartitionedCall/model_2/tf.cast_2/Cast"], "attr": {"SrcT": {"type": "DT_UINT8"}, "DstT": {"type": "DT_FLOAT"}, "Truncate": {"b": false}}}, {"name": "PartitionedCall/model_2/tf.math.subtract_4/Sub", "op": "Sub", "input": ["PartitionedCall/model_2/tf.cast_4/Cast", "PartitionedCall/model_2/tf.cast_5/Cast"], "attr": {"T": {"type": "DT_FLOAT"}}}, {"name": "PartitionedCall/model_2/tf.math.subtract_5/Sub", "op": "Sub", "input": ["PartitionedCall/model_2/tf.cast_6/Cast", "PartitionedCall/model_2/tf.cast_7/Cast"], "attr": {"T": {"type": "DT_FLOAT"}}}, {"name": "PartitionedCall/model_2/tf.math.multiply/Mul", "op": "Mul", "input": ["PartitionedCall/model_2/tf.math.subtract_4/Sub", "PartitionedCall/model_2/tf.math.truediv/truediv"], "attr": {"T": {"type": "DT_FLOAT"}}}, {"name": "PartitionedCall/model_2/tf.math.multiply_1/Mul", "op": "Mul", "input": ["PartitionedCall/model_2/tf.math.subtract_5/Sub", "PartitionedCall/model_2/tf.math.truediv_3/truediv"], "attr": {"T": {"type": "DT_FLOAT"}}}, {"name": "PartitionedCall/model_2/PartitionedCall__1/AddV2", "op": "_FusedMatMul", "input": ["PartitionedCall/model_2/tf.math.multiply/Mul", "unknown_117", "unknown_121"], "device": "/device:CPU:0", "attr": {"T": {"type": "DT_FLOAT"}, "transpose_b": {"b": false}, "leakyrelu_alpha": {"f": 0.2}, "num_args": {"i": "1"}, "fused_ops": {"list": {"s": ["Qmlhc0FkZA=="]}}, "epsilon": {"f": 0.0}, "transpose_a": {"b": false}}}, {"name": "PartitionedCall/model_2/PartitionedCall__0/AddV2", "op": "_FusedMatMul", "input": ["PartitionedCall/model_2/tf.math.multiply_1/Mul", "unknown_118", "unknown_122"], "device": "/device:CPU:0", "attr": {"transpose_b": {"b": false}, "epsilon": {"f": 0.0}, "leakyrelu_alpha": {"f": 0.2}, "fused_ops": {"list": {"s": ["Qmlhc0FkZA=="]}}, "transpose_a": {"b": false}, "T": {"type": "DT_FLOAT"}, "num_args": {"i": "1"}}}, {"name": "Identity_1", "op": "Identity", "input": ["PartitionedCall/model_2/PartitionedCall__1/AddV2"], "attr": {"T": {"type": "DT_FLOAT"}}}, {"name": "Identity", "op": "Identity", "input": ["PartitionedCall/model_2/PartitionedCall__0/AddV2"], "attr": {"T": {"type": "DT_FLOAT"}}}], "library": {}, "versions": {"producer": 1645}}, "weightsManifest": [{"paths": ["group1-shard1of2.bin", "group1-shard2of2.bin"], "weights": [{"name": "PartitionedCall/model_2/tf.clip_by_value_3/clip_by_value/Minimum/y", "shape": [], "dtype": "float32"}, {"name": "PartitionedCall/model_2/tf.clip_by_value_3/clip_by_value/y", "shape": [], "dtype": "float32"}, {"name": "PartitionedCall/model_2/tf.clip_by_value_2/clip_by_value/Minimum/y", "shape": [], "dtype": "float32"}, {"name": "PartitionedCall/model_2/tf.clip_by_value_2/clip_by_value/y", "shape": [], "dtype": "float32"}, {"name": "unknown_114", "shape": [], "dtype": "float32"}, {"name": "PartitionedCall/model_2/tf.math.reduce_max_1/Const", "shape": [2], "dtype": "int32"}, {"name": "unknown_113", "shape": [], "dtype": "float32"}, {"name": "unknown_104", "shape": [3, 3, 256, 1], "dtype": "float32"}, {"name": "unknown_106", "shape": [256], "dtype": "float32"}, {"name": "unknown_108", "shape": [1, 1, 256, 1024], "dtype": "float32"}, {"name": "unknown_110", "shape": [1024], "dtype": "float32"}, {"name": "PartitionedCall/model_2/tf.math.reduce_mean_1/Mean/reduction_indices", "shape": [2], "dtype": "int32"}, {"name": "PartitionedCall/model_2/tf.compat.v1.transpose_7/transpose/perm", "shape": [4], "dtype": "int32"}, {"name": "PartitionedCall/model_2/tf.reshape_1/Reshape/shape", "shape": [2], "dtype": "int32"}, {"name": "PartitionedCall/model_2/tf.math.reduce_min_1/Const", "shape": [2], "dtype": "int32"}, {"name": "ConstantFolding/PartitionedCall/model_2/tf.math.truediv_3/truediv_recip", "shape": [], "dtype": "float32"}, {"name": "unknown_118", "shape": [1024, 2], "dtype": "float32"}, {"name": "unknown_122", "shape": [2], "dtype": "float32"}, {"name": "PartitionedCall/model_2/tf.clip_by_value_1/clip_by_value/Minimum/y", "shape": [], "dtype": "float32"}, {"name": "PartitionedCall/model_2/tf.clip_by_value_1/clip_by_value/y", "shape": [], "dtype": "float32"}, {"name": "PartitionedCall/model_2/tf.clip_by_value/clip_by_value/Minimum/y", "shape": [], "dtype": "float32"}, {"name": "PartitionedCall/model_2/tf.clip_by_value/clip_by_value/y", "shape": [], "dtype": "float32"}, {"name": "unknown_112", "shape": [], "dtype": "float32"}, {"name": "PartitionedCall/model_2/tf.math.reduce_max/Const", "shape": [2], "dtype": "int32"}, {"name": "unknown_111", "shape": [], "dtype": "float32"}, {"name": "unknown", "shape": [4, 2], "dtype": "int32"}, {"name": "PartitionedCall/model_2/tf.compat.v1.transpose/transpose/perm", "shape": [4], "dtype": "int32"}, {"name": "PartitionedCall/model_2/tf.compat.v1.transpose_1/transpose/perm", "shape": [4], "dtype": "int32"}, {"name": "unknown_0", "shape": [3, 3, 3, 48], "dtype": "float32"}, {"name": "unknown_1", "shape": [48], "dtype": "float32"}, {"name": "unknown_2", "shape": [4, 2], "dtype": "int32"}, {"name": "unknown_3", "shape": [3, 3, 48, 1], "dtype": "float32"}, {"name": "unknown_4", "shape": [48], "dtype": "float32"}, {"name": "unknown_5", "shape": [1, 1, 48, 48], "dtype": "float32"}, {"name": "unknown_6", "shape": [48], "dtype": "float32"}, {"name": "unknown_7", "shape": [4, 2], "dtype": "int32"}, {"name": "unknown_8", "shape": [3, 3, 48, 1], "dtype": "float32"}, {"name": "unknown_9", "shape": [48], "dtype": "float32"}, {"name": "unknown_10", "shape": [1, 1, 48, 48], "dtype": "float32"}, {"name": "unknown_11", "shape": [48], "dtype": "float32"}, {"name": "unknown_12", "shape": [4, 2], "dtype": "int32"}, {"name": "unknown_13", "shape": [3, 3, 48, 1], "dtype": "float32"}, {"name": "unknown_14", "shape": [48], "dtype": "float32"}, {"name": "unknown_15", "shape": [1, 1, 48, 128], "dtype": "float32"}, {"name": "unknown_16", "shape": [128], "dtype": "float32"}, {"name": "unknown_17", "shape": [4, 2], "dtype": "int32"}, {"name": "unknown_18", "shape": [3, 3, 128, 1], "dtype": "float32"}, {"name": "unknown_19", "shape": [128], "dtype": "float32"}, {"name": "unknown_20", "shape": [1, 1, 128, 128], "dtype": "float32"}, {"name": "unknown_21", "shape": [128], "dtype": "float32"}, {"name": "unknown_22", "shape": [4, 2], "dtype": "int32"}, {"name": "unknown_23", "shape": [3, 3, 128, 1], "dtype": "float32"}, {"name": "unknown_24", "shape": [128], "dtype": "float32"}, {"name": "unknown_25", "shape": [1, 1, 128, 128], "dtype": "float32"}, {"name": "unknown_26", "shape": [128], "dtype": "float32"}, {"name": "unknown_27", "shape": [4, 2], "dtype": "int32"}, {"name": "unknown_28", "shape": [3, 3, 128, 1], "dtype": "float32"}, {"name": "unknown_29", "shape": [128], "dtype": "float32"}, {"name": "unknown_30", "shape": [1, 1, 128, 128], "dtype": "float32"}, {"name": "unknown_31", "shape": [128], "dtype": "float32"}, {"name": "unknown_32", "shape": [4, 2], "dtype": "int32"}, {"name": "unknown_33", "shape": [3, 3, 128, 1], "dtype": "float32"}, {"name": "unknown_34", "shape": [128], "dtype": "float32"}, {"name": "unknown_35", "shape": [1, 1, 128, 128], "dtype": "float32"}, {"name": "unknown_36", "shape": [128], "dtype": "float32"}, {"name": "unknown_37", "shape": [4, 2], "dtype": "int32"}, {"name": "unknown_38", "shape": [3, 3, 128, 1], "dtype": "float32"}, {"name": "unknown_39", "shape": [128], "dtype": "float32"}, {"name": "unknown_40", "shape": [1, 1, 128, 128], "dtype": "float32"}, {"name": "unknown_41", "shape": [128], "dtype": "float32"}, {"name": "unknown_42", "shape": [4, 2], "dtype": "int32"}, {"name": "unknown_43", "shape": [3, 3, 128, 1], "dtype": "float32"}, {"name": "unknown_44", "shape": [128], "dtype": "float32"}, {"name": "unknown_45", "shape": [1, 1, 128, 128], "dtype": "float32"}, {"name": "unknown_46", "shape": [128], "dtype": "float32"}, {"name": "unknown_47", "shape": [4, 2], "dtype": "int32"}, {"name": "unknown_48", "shape": [3, 3, 128, 1], "dtype": "float32"}, {"name": "unknown_49", "shape": [128], "dtype": "float32"}, {"name": "unknown_50", "shape": [1, 1, 128, 128], "dtype": "float32"}, {"name": "unknown_51", "shape": [128], "dtype": "float32"}, {"name": "unknown_52", "shape": [4, 2], "dtype": "int32"}, {"name": "unknown_53", "shape": [3, 3, 128, 1], "dtype": "float32"}, {"name": "unknown_54", "shape": [128], "dtype": "float32"}, {"name": "unknown_55", "shape": [1, 1, 128, 256], "dtype": "float32"}, {"name": "unknown_56", "shape": [256], "dtype": "float32"}, {"name": "unknown_57", "shape": [4, 2], "dtype": "int32"}, {"name": "unknown_58", "shape": [3, 3, 256, 1], "dtype": "float32"}, {"name": "unknown_59", "shape": [256], "dtype": "float32"}, {"name": "unknown_60", "shape": [1, 1, 256, 256], "dtype": "float32"}, {"name": "unknown_61", "shape": [256], "dtype": "float32"}, {"name": "unknown_62", "shape": [4, 2], "dtype": "int32"}, {"name": "unknown_63", "shape": [3, 3, 256, 1], "dtype": "float32"}, {"name": "unknown_64", "shape": [256], "dtype": "float32"}, {"name": "unknown_65", "shape": [1, 1, 256, 256], "dtype": "float32"}, {"name": "unknown_66", "shape": [256], "dtype": "float32"}, {"name": "unknown_67", "shape": [4, 2], "dtype": "int32"}, {"name": "unknown_68", "shape": [3, 3, 256, 1], "dtype": "float32"}, {"name": "unknown_69", "shape": [256], "dtype": "float32"}, {"name": "unknown_70", "shape": [1, 1, 256, 256], "dtype": "float32"}, {"name": "unknown_71", "shape": [256], "dtype": "float32"}, {"name": "unknown_72", "shape": [4, 2], "dtype": "int32"}, {"name": "unknown_73", "shape": [3, 3, 256, 1], "dtype": "float32"}, {"name": "unknown_74", "shape": [256], "dtype": "float32"}, {"name": "unknown_75", "shape": [1, 1, 256, 256], "dtype": "float32"}, {"name": "unknown_76", "shape": [256], "dtype": "float32"}, {"name": "unknown_77", "shape": [4, 2], "dtype": "int32"}, {"name": "unknown_78", "shape": [3, 3, 256, 1], "dtype": "float32"}, {"name": "unknown_79", "shape": [256], "dtype": "float32"}, {"name": "unknown_80", "shape": [1, 1, 256, 256], "dtype": "float32"}, {"name": "unknown_81", "shape": [256], "dtype": "float32"}, {"name": "unknown_82", "shape": [4, 2], "dtype": "int32"}, {"name": "unknown_83", "shape": [3, 3, 256, 1], "dtype": "float32"}, {"name": "unknown_84", "shape": [256], "dtype": "float32"}, {"name": "unknown_85", "shape": [1, 1, 256, 256], "dtype": "float32"}, {"name": "unknown_86", "shape": [256], "dtype": "float32"}, {"name": "unknown_87", "shape": [4, 2], "dtype": "int32"}, {"name": "unknown_88", "shape": [3, 3, 256, 1], "dtype": "float32"}, {"name": "unknown_89", "shape": [256], "dtype": "float32"}, {"name": "unknown_90", "shape": [1, 1, 256, 256], "dtype": "float32"}, {"name": "unknown_91", "shape": [256], "dtype": "float32"}, {"name": "unknown_92", "shape": [4, 2], "dtype": "int32"}, {"name": "unknown_93", "shape": [3, 3, 256, 1], "dtype": "float32"}, {"name": "unknown_94", "shape": [256], "dtype": "float32"}, {"name": "unknown_95", "shape": [1, 1, 256, 256], "dtype": "float32"}, {"name": "unknown_96", "shape": [256], "dtype": "float32"}, {"name": "unknown_97", "shape": [4, 2], "dtype": "int32"}, {"name": "unknown_98", "shape": [3, 3, 256, 1], "dtype": "float32"}, {"name": "unknown_99", "shape": [256], "dtype": "float32"}, {"name": "unknown_100", "shape": [1, 1, 256, 256], "dtype": "float32"}, {"name": "unknown_101", "shape": [256], "dtype": "float32"}, {"name": "unknown_102", "shape": [4, 2], "dtype": "int32"}, {"name": "unknown_103", "shape": [3, 3, 256, 1], "dtype": "float32"}, {"name": "unknown_105", "shape": [256], "dtype": "float32"}, {"name": "unknown_107", "shape": [1, 1, 256, 1024], "dtype": "float32"}, {"name": "unknown_109", "shape": [1024], "dtype": "float32"}, {"name": "PartitionedCall/model_2/tf.math.reduce_mean/Mean/reduction_indices", "shape": [2], "dtype": "int32"}, {"name": "PartitionedCall/model_2/tf.compat.v1.transpose_4/transpose/perm", "shape": [4], "dtype": "int32"}, {"name": "PartitionedCall/model_2/tf.reshape/Reshape/shape", "shape": [2], "dtype": "int32"}, {"name": "PartitionedCall/model_2/tf.math.reduce_min/Const", "shape": [2], "dtype": "int32"}, {"name": "ConstantFolding/PartitionedCall/model_2/tf.math.truediv/truediv_recip", "shape": [], "dtype": "float32"}, {"name": "unknown_117", "shape": [1024, 1], "dtype": "float32"}, {"name": "unknown_121", "shape": [1], "dtype": "float32"}]}]}